lambda_run_001/checkpoints/phase1_final.pt (torch, 138955 bytes, 30 tensors)

net.0.weight f4 [64, 20]
00000000: 180f 2f3e b90c 3e3e 9191 56bd 6756 523e
00000010: efac 48bd 9bd1 383d 23f4 debd da78 063e
00000020: 8fd9 493e 37fb 27be d405 473e 006b 2b3d
00000030: e42a 293e 7714 f83c 03d1 dc3d e050 01bd
00000040: 2783 303e 9160 073d adc9 d5bd ae75 693d
00000050: 2afe d2bd a2d1 d6bc b6ff b9bd efe4 173e
00000060: a7be 34be 401e d3bd 0650 81bd e5ac 09be
00000070: c7e3 ac3c f726 62be b5c9 4e3e 6f81 42be
00000080: 11c6 303e 166c 183d 87b2 94bd 7c7e 0d3e
00000090: 21be 0e3d 8900 393e 1840 c83c 936c 90bd
000000a0: eb15 763d 185f 78bd f7ba c03d b76e 4c3e
000000b0: 395c 043e a433 c8bd a02d 043e 9be0 233d
000000c0: b78f e83d 788f 0bbe a4a9 62be bbee b0bd
000000d0: b7a0 2fbe ade1 3b3e 2be7 833d 0fb0 bd3d
000000e0: add4 903d fcec 7ebb 4a32 333e 4eb0 22be
000000f0: 18ac 663c 9548 1cbe 7335 8d3d 70b5 9dbd
00000100: 8452 8c3d 8fd1 3ebd 9ce8 3d3e 84b6 07be
00000110: 2b8f 08be 4791 08be cdf2 4d3e 7b9c 983d
00000120: 6c54 5c3e 5ef7 3cbe fb1c 63be f523 33be
00000130: 2307 1abe 9f7c b93d cbfa a33d 7242 3e3e
00000140: cc7e ecbd 0618 1cbe fdf9 f23d a71a b9bd
00000150: 2af8 0a3e 9357 59bd b8fb 023e ace7 31be
00000160: 4b1a e7bd ff9d 8b3d 75a0 413d da83 69bd
00000170: e97b 083e 80a8 1b3e 9e0b 26be b27b f4bd
00000180: 85a9 513e af86 9abd 8059 a2bd ab8d 5dbe
00000190: 5020 03be 25cb 643d 8bc8 f1bc 6435 26be
000001a0: e3de ab3b 5068 1cbe 9f42 42be 952c fcbd
000001b0: 7766 48be cacb 11be 41e2 643e 45fd 2c3d
000001c0: e81e 8d3d 538f 55be 3a62 16be 246e 98bd
000001d0: 2338 0f3d 827a 49be 2051 c5bd 4314 09be
000001e0: 7f71 223a 4867 aabd c2de 7dbc be28 1bbe
000001f0: 8d2a 1dbe 5e95 05be 05c1 9cbd 6bb9 34be
00000200: bdfc 3f3e 9cc5 35bd 0802 453e 20b0 8e3d
00000210: dae4 41be 2775 1e3e da00 7cbd fc8a afbd
00000220: 6410 3ebe e5a2 63be ff05 833d 4112 48bd
00000230: 0c4a b23d fae8 3bbe 1aff 293e 2914 28be
00000240: 7f26 1ebd 694d 3f3d 736a ec3d 41da 383e
00000250: dd95 503e dc8e 35be 1a80 663d 8af9 c4bd
00000260: 6bbc c8bc 6162 2bbe f78f 503e 1c0e 28be
00000270: 0dc0 f43d ccf0 a03d 00d0 943d 4f96 f7bd
00000280: 2d20 503e 9944 493d 23a4 eb3c acc8 49be
00000290: a23d c03d 2367 09bd e8cb d1bd 06ad 443e
000002a0: 8432 4c3d 025f fdbd dfc8 e7bd e3f4 2ebc
000002b0: 21b3 ff3d b00a 6abd 7ea5 02be 12d2 9cbd
000002c0: 6c0f 2bbe 9451 a33d 0e3c 313e 9490 57be
000002d0: 86b7 543d 4f92 ec3d 1114 263d 0b16 a3bd
000002e0: 8d05 ef3d 33a8 f03d 1f3d ab3d 2cf1 20bd
000002f0: 9d87 72bd 5cf7 c33c dccb 21bd f677 88bd
00000300: 815c 123e 94c7 443e 9157 b5bc cf10 4dbd
00000310: f8d6 553b dbbe 5abc ed30 5c3d 0255 803d
00000320: 73f7 4fbe e7ff a8bd 41d3 403e 3a65 b23d
00000330: 9f37 36bc a20c 0abe 4a16 0cbe 541b 4dbe
00000340: ff45 95bd 89a6 9a3d 95ff 113e cb6e d33d
00000350: 4e66 4abe 2cb2 09be 118b 10bd 4d7f 5d3e
00000360: a87d 043d 8930 6dbd a475 bd3d 676c aebd
00000370: 4d34 14be ef1f 273e ac3a d0bd 2f9b 37bd
00000380: 9fc8 63be c23e 193e 687a 2d3e dae5 a63d
00000390: 3fa8 1fbe a2fb 61be a4f7 39be d8be 2a3e
000003a0: e4dc db3d 9eae 403e 8de7 ef3d 32ce 673d
000003b0: 4181 0fbb b822 2ebe 922d 44be 802b 56be
000003c0: 4977 bb3d 51d6 e0bd 6f53 38bd 7fc6 03be
000003d0: b9e5 26bd d128 21be 629d 15be e8e7 973d
000003e0: a119 88bd eb5a 0d3e cfe9 92bd a5f7 27be
000003f0: 6999 21bd 0dfd ddbd de1a 8cbd 4cfb 59be
0.17095602 0.18559541 -0.052384917 0.20540772 -0.048993047 0.04512177 -0.10886409 0.13132039
0.19711898 -0.16404425 0.19435817 0.04185009 0.16520268 0.030283196 0.10782053 -0.03157127
0.1723753 0.033051077 -0.10438857 0.056996994 -0.10302384 -0.026223008 -0.09081976 0.14833425
-0.17650853 -0.10308504 -0.063140914 -0.1344486 0.021104706 -0.22085176 0.20194133 -0.18994687
0.17263056 0.037212454 -0.07260614 0.13817781 0.03484929 0.1806661 0.024444625 -0.07051959
0.060079496 -0.060637563 0.09410661 0.1996411 0.12925805 -0.09775475 0.1290803 0.040009122
0.113555364 -0.13628948 -0.22135025 -0.08639284 -0.17151152 0.18347807 0.06440576 0.09262096
0.07071815 -0.0038898578 0.17499653 -0.15887567 0.014079116 -0.15262063 0.0689496 -0.07700622
0.06851676 -0.04658657 0.18545765 -0.13253218 -0.13335864 -0.13336669 0.20112152 0.07451721
0.2151658 -0.18453738 -0.22179024 -0.17494185 -0.15041785 0.09056973 0.08006819 0.18580034
-0.11547622 -0.15243539 0.11864088 -0.09038287 0.1357123 -0.053062033 0.12791336 -0.17373532
-0.11284312 0.06817245 0.047272164 -0.05701051 0.13328518 0.15200996 -0.16215369 -0.119376555
0.20474823 -0.0754522 -0.07927227 -0.21636073 -0.12805295 0.055857796 -0.029514572 -0.16231304
0.005245076 -0.15274167 -0.18970726 -0.12313191 -0.19570337 -0.14237896 0.22351934 0.042233724
0.068906605 -0.20855455 -0.14685908 -0.07442883 0.034965646 -0.1967564 -0.09634614 -0.13386635
0.0006196722 -0.083204806 -0.015495004 -0.1515226 -0.15348263 -0.1304526 -0.07654003 -0.17648856
0.18748756 -0.044377908 0.19239056 0.06967187 -0.18934956 0.15474378 -0.06152425 -0.08571431
-0.1856094 -0.22230108 0.06397628 -0.048845533 0.087055296 -0.18350592 0.1660122 -0.1641394
-0.03861093 0.046704683 0.11543741 0.18052007 0.20369668 -0.17730278 0.05627451 -0.09617908
-0.024503907 -0.16736747 0.20367418 -0.16411632 0.11950693 0.07858428 0.07266235 -0.12089216
0.20324774 0.049137685 0.02876479 -0.19705456 0.093867555 -0.033545624 -0.1024397 0.19206628
0.049852863 -0.12371637 -0.1131761 -0.010678503 0.12485338 -0.0571391 -0.12758443 -0.07657255
-0.16705102 0.07974544 0.17308065 -0.21051246 0.051932834 0.11551344 0.04054648 -0.07963189
0.116709806 0.117508315 0.08361267 -0.0392925 -0.059211362 0.023921661 -0.039501056 -0.06663506
0.142931 0.19216758 -0.022136481 -0.050064858 0.0032629352 -0.013351168 0.053757597 0.06266214
-0.20309238 -0.082519345 0.18830587 0.08710714 -0.01112166 -0.13481382 -0.13680378 -0.20029956
-0.07288741 0.07551295 0.14257653 0.103238665 -0.19765589 -0.13446873 -0.035288874 0.21630593
0.032346398 -0.057907615 0.09250954 -0.0851677 -0.14473076 0.16320775 -0.10167441 -0.04482573
-0.222445 0.14965346 0.16941226 0.081493095 -0.15591525 -0.22068647 -0.18160874 0.16674364
0.10735491 0.18816611 0.11714087 0.056593128 -0.002189711 -0.17005432 -0.19158009 -0.20915031
0.09153611 -0.109783776 -0.045001443 -0.12868689 -0.040746424 -0.15738226 -0.14610818 0.074172795
-0.06645513 0.13804214 -0.07173502 -0.16403063 -0.039452944 -0.10839281 -0.06841062 -0.21287268

net.0.bias f4 [64]
00000000: 55ac 25be 7fdb 64bd 51e0 aebc 4cd7 febd
00000010: d31f 29be f202 1a3e 4564 1b3e 6ff3 4fbe
00000020: 5fb9 913d 314b ba3d 7784 593e 2f79 043e
00000030: ec80 523e 53ed 95bd ad5e 203e 4b3f 3a3e
00000040: d939 58be 67cc 37be bf61 393d 640e fa3d
00000050: 9083 e3bd 2fbe c93c 5631 aab9 d5d1 673d
00000060: d513 f6bd 6026 013e f944 183e 04e0 1ebe
00000070: 5df6 0d3b 96a3 223a cc0d 933d db4e 553e
00000080: 8d4c 863d 711c 50bd 05a6 4d3e 8743 aebd
00000090: 8df9 84bd b821 7a3c 805d 2ebe 8654 c73c
000000a0: 525a 1bbe 7258 bc3c c07f af3c a68e fd3c
000000b0: 9c17 41be ad79 59be 90b5 d23d db5d 443e
000000c0: 442f 4bbe ee9e a93d 5e8d 28be a0ac 653c
000000d0: f206 553e 1eb4 2d3e 5a69 27be f0a2 0d3e
000000e0: 8531 ef3d 61d2 b3b9 08d0 5d3e 94e2 b5bd
000000f0: 9624 55bd e773 e7bd 4dcb 033d 3484 723d
-0.1617902 -0.05587339 -0.021347197 -0.12443408 -0.16516046 0.15040186 0.15174969 -0.20307706
0.07115435 0.09096373 0.21241938 0.12936853 0.20556992 -0.073206566 0.15661116 0.18188207
-0.21115817 -0.17949067 0.045259234 0.12209776 -0.11109078 0.02462682 -0.00032461685 0.056596596
-0.120155014 0.12612295 0.14870061 -0.15515143 0.0021661737 0.0006204186 0.07180366 0.20830862
0.0655757 -0.050808374 0.20082863 -0.085089736 -0.064929105 0.015266828 -0.17027855 0.024332296
-0.15171173 0.022991393 0.02142322 0.03095181 -0.18856663 -0.21237822 0.102885365 0.19176428
-0.19842249 0.082822666 -0.16460177 0.014018208 0.2080343 0.1696324 -0.16348782 0.13831687
0.11679367 -0.00034298285 0.21661389 -0.08881107 -0.052036844 -0.113014035 0.032176305 0.05920811

net.2.weight f4 [64, 64]
00000000: 602f 233c fc08 90bd 387c 66bd 7828 2e3d
00000010: b277 e0bd e078 9fbc 4077 35bb a471 4fbd
00000020: 7853 3a3d 5000 043c 82ba b33d d0e2 35bc
00000030: 4a92 a1bd 94e0 b43d 1800 8f3c c8a2 12bd
00000040: f6ba a8bd a803 f03c 2029 f4bd 74d9 063d
00000050: dc27 7d3d 3690 e0bd 9c98 a7bd 860b b8bd
00000060: 702b d73d 82a1 d93d e034 003c 9455 f03d
00000070: e429 2bbd ce87 f8bd c8d6 323d b062 353d
00000080: 56fa fa3d 00c0 17b8 8a32 c43d 32eb 9c3d
00000090: ea48 b93d 7a09 febd 24ce d23d 5a3a dabd
000000a0: c081 e53d a0bd a9bb 20df e2bd 2c62 0e3d
000000b0: 906e d0bc 00f0 e5bd 9c9e 39bd d028 533c
000000c0: 7e62 c73d 6c67 1dbd 480e 983d e83b 803c
000000d0: 4011 8a3b f0ef c33c 3a01 a8bd 68c9 d4bd
000000e0: 58e0 20bd fc8d eebd 80c5 6ebd a070 bc3b
000000f0: 9e9a a8bd 2460 54bd b8ff b7bc c0ef 6bbc
00000100: d450 8dbd 20d1 c43b a8ba 8fbc 046e 123d
00000110: 8001 b93b 64ad 7fbd fc45 30bd 80d6 bcba
00000120: 80bd 9fbd e053 203c c099 10bc 20a5 463d
00000130: 8058 f23c 1096 bf3d c006 87bb e428 bdbd
00000140: 5cde 643d b603 adbd 50c0 8cbc 78c9 25bd
00000150: 8c46 42bd 886e 3dbd 603e eb3d 888c 923d
00000160: f4e4 0d3d 765f f03d 2afe e7bd 883d a53c
00000170: 9ae2 a33d e80e aa3d 12bd cbbd 2837 363d
00000180: f0d6 91bd e00b a0bb a8ad d5bc 3cc0 d5bd
00000190: bc33 f4bd 006c a8bd 9c54 683d fc34 6a3d
000001a0: d6a8 debd 1447 40bd c0cf 053b 4855 ddbd
000001b0: 8e3e 903d 14de e73d 401b b53c 3836 bebd
000001c0: 68c8 ee3c ecdc 393d 3ab6 ca3d bc35 88bd
000001d0: 585a e5bd 90f2 603d 8000 ff3b b8d2 26bd
000001e0: 188a 56bd 66ff 83bd 323b cf3d 18ae b0bc
000001f0: 06a1 b83d b084 e43d 60b7 813c 4821 da3c
00000200: 807a 0bbc 22d3 af3d b2ad e6bd 1c9d 4b3d
00000210: d0d6 a6bc 9cc9 693d 00f3 11ba 8493 3dbd
00000220: e014 5dbc f83c 8a3d b6cc b1bd 40d1 a1bd
00000230: 505f e5bc 08b7 39bd 3822 493d c047 ac3d
00000240: 8056 5bbc 2011 f23d 80ec 55bd 24a8 8fbd
00000250: 2838 65bd 7e60 b0bd 6670 b3bd 9819 e4bd
00000260: 32e3 e2bd 9ca1 053d 641f 9c3d 4c58 f03d
00000270: 640f da3d 60e7 ebbb 28b4 c63c 7c2b 99bd
00000280: 18e6 453d 9c76 f5bd 1c7f 713d 48d1 bb3c
00000290: fc56 1d3d cc77 3b3d c80f 6bbd dcac db3d
000002a0: 705a 743d 402a a83d 983f 873c bac3 a03d
000002b0: cc49 ac3d 680e 683d 4603 c33d 20bb b9bc
000002c0: 4a54 a83d c0ed eb3c c008 9a3d f857 f93d
000002d0: 20df e73c 9809 3ebd a0c4 4bbc 8024 103d
000002e0: e8a7 ac3c f4dc 0bbd aa94 c83d 82ce 993d
000002f0: ee03 9fbd c0df 26bc 6098 44bc 6e71 a0bd
00000300: 005b 953c 2c2e 1dbd b629 84bd d0a1 24bd
00000310: 888d 36bd 5ce6 f43d 8c63 443d d8ee fb3d
00000320: 5c63 0c3d 98dd e73c dc7a 523d 70c0 af3c
00000330: c8e6 c8bd f262 97bd e017 f8bc 004e f63a
00000340: b8e0 403d 0c25 453d 9616 cb3d 6075 d03c
00000350: fcbd 2ebd cc84 c0bd 447f bbbd 1ceb 98bd
00000360: c86b 1a3d 464f 8a3d 46fa df3d 9cf3 21bd
00000370: 608d 21bc 980b 18bd 0078 efb9 4c5a 243d
00000380: 80fd 33bb a09f bd3b 48ba 813c 9cad 3e3d
00000390: 6c57 1bbd f6a6 98bd 3896 f13c a07e 72bc
000003a0: 48f3 67bd 6405 573d 8096 943a b0f4 94bc
000003b0: d4d9 77bd 38b9 86bc e8ae d9bd 38f3 e83c
000003c0: 80de f53a a259 9b3d 803d 043c 00be 233c
000003d0: b879 0b3d cecc c23d 14f3 71bd 54d5 983d
000003e0: 586e fa3c 2ac8 aabd 8c45 323d 2288 99bd
000003f0: f42a 21bd f00d 74bd 1229 aebd 489e c93d
0.009960026 -0.07032964 -0.056270808 0.042519063 -0.1096033 -0.019466817 -0.0027689487 -0.050645486
0.04548976 0.008056715 0.08775808 -0.01110144 -0.078892305 0.088318974 0.0174561 -0.03579977
-0.08238785 0.029298618 -0.119219065 0.032922223 0.06180559 -0.10965006 -0.08183405 -0.08986573
0.10506332 0.10626508 0.007825106 0.11735073 -0.041787997 -0.12135278 0.043661863 0.04428357
0.12254779 -3.618002e-05 0.09579952 0.076620474 0.090471104 -0.12404151 0.102932245 -0.10655661
0.112063885 -0.0051800758 -0.11077714 0.034761593 -0.025443345 -0.11227417 -0.045317277 0.012888148
0.09735583 -0.03842871 0.07424599 0.015653566 0.004213482 0.023918122 -0.08203359 -0.10389978
-0.03927645 -0.11648175 -0.05829382 0.0057507306 -0.08232616 -0.0518495 -0.022460803 -0.014400423
-0.06900182 0.006006375 -0.01754506 0.03574945 0.0056459308 -0.062421218 -0.043035492 -0.0014407188
-0.07799816 0.009785622 -0.008825719 0.04849732 0.029583216 0.09354794 -0.0041206777 -0.09236315
0.05587612 -0.084479734 -0.017181545 -0.04047534 -0.04743056 -0.04624799 0.114865065 0.071557105
0.034642175 0.11736958 -0.11327775 0.020170942 0.08002205 0.083036244 -0.09948172 0.044486195
-0.07121074 -0.004884228 -0.026083782 -0.104370564 -0.1192393 -0.08223724 0.056721315 0.057179436
-0.10872047 -0.046942785 0.0020418018 -0.10807282 0.07043181 0.11321655 0.02210772 -0.09287685
0.029148296 0.045376703 0.09898038 -0.06650874 -0.11198872 0.054918826 0.007782042 -0.0407283
-0.05237779 -0.06445198 0.101187125 -0.02156739 0.09015088 0.11158121 0.01583451 0.026627198
-0.008513093 0.08585192 -0.112635985 0.049710378 -0.020366102 0.057077035 -0.0005567521 -0.04628326
-0.0134937465 0.0674991 -0.08681624 -0.079012394 -0.02799955 -0.045340568 0.0491049 0.08412123
-0.013387322 0.118196726 -0.052227497 -0.07014492 -0.055961758 -0.086121544 -0.08761673 -0.11137694
-0.1107849 0.032624826 0.07623175 0.11735591 0.10647467 -0.007199213 0.024255827 -0.07478997
0.048315138 -0.119855136 0.05895911 0.022926942 0.038413033 0.045768544 -0.057388097 0.1072633
0.05965656 0.082111835 0.016509816 0.07849832 0.08412513 0.056654364 0.09522109 -0.022672236
0.08219202 0.028799891 0.075212 0.12174982 0.028304636 -0.046395868 -0.012437016 0.03519106
0.021076158 -0.034146264 0.097939804 0.07510091 -0.077644214 -0.010185182 -0.01199922 -0.07834135
0.018231869 -0.03837411 -0.06453268 -0.04019338 -0.04456857 0.11958 0.047946498 0.12301415
0.034274444 0.028303906 0.0513867 0.021454066 -0.09809643 -0.07391919 -0.030284822 0.0018791556
0.04708931 0.048131034 0.09916417 0.025446594 -0.042661652 -0.09400329 -0.09155133 -0.074667186
0.037700444 0.067534015 0.10936408 -0.039538965 -0.009860367 -0.03712043 -0.0004567504 0.040125176
-0.002746433 0.005786851 0.015835896 0.046552286 -0.03792517 -0.0745372 0.029490575 -0.014800698
-0.056628495 0.052495375 0.0011336356 -0.018183082 -0.06051047 -0.016445741 -0.10629064 0.028436288
0.0018758327 0.075854555 0.008071303 0.00999403 0.034051627 0.0951172 -0.059069708 0.07462564
0.030570194 -0.083389595 0.043523356 -0.074966684 -0.039347604 -0.059583604 -0.08503927 0.09844643

net.2.bias f4 [64]
00000000: 6cdd efbd c827 a5bc 0040 9eb9 5428 a7bd
00000010: b075 8d3d 70df 063c 7294 81bd a8a7 f7bd
00000020: aa59 c73d 74e8 fd3d 3028 3e3c 6436 75bd
00000030: 84c1 a23d 38df 963d c0f0 92bc 3811 f03d
00000040: 3e2b bdbd f0b1 6abc 36f3 d83d 6866 9ebd
00000050: c8ee 1dbd 14ae 59bd a898 51bd 567f e13d
00000060: b2c9 9d3d fabb e8bd 4e93 9cbd 80cc d5ba
00000070: e079 26bd 14fb 8cbd f8a2 fbbd 6ece bc3d
00000080: be54 8f3d 4c8f 143d 7872 e6bc 6c25 f8bd
00000090: 2037 00bc 7cbc 433d 9497 14bd 2a82 c93d
000000a0: 4007 ea3c 003e cbbb e858 4a3d b268 853d
000000b0: 2ac4 bbbd 18b3 1b3d 2ead e8bd 4092 d6bc
000000c0: 9cff 25bd 3078 c33d ee94 f6bd e8e7 353d
000000d0: a845 e9bd 48f5 5d3d 50c8 fa3c d078 49bd
000000e0: d03a 173d 8eb3 f53d ceda 9b3d 7a97 e9bd
000000f0: 48b0 04bd bc36 e83d d86c 9e3c a07c 7c3c
-0.11712155 -0.02016057 -0.00030183792 -0.08161989 0.06907213 0.008231983 -0.06327142 -0.12092525
0.09733899 0.123978525 0.011606261 -0.059866324 0.079470664 0.07366794 -0.017937064 0.11722034
-0.092367634 -0.01432465 0.10593264 -0.07734376 -0.038557798 -0.05314453 -0.051170975 0.110106155
0.07704486 -0.11363979 -0.07645284 -0.0016311556 -0.040643573 -0.06883827 -0.12286943 0.09219061
0.06998585 0.03626947 -0.028130755 -0.12116513 -0.007825643 0.047787175 -0.03627737 0.0983928
0.02856791 -0.0062024593 0.049401194 0.0651411 -0.09168275 0.038012594 -0.113611564 -0.026192784
-0.04052697 0.09544408 -0.12040125 0.044410616 -0.11390239 0.054188997 0.030613095 -0.04918748
0.036921322 0.11997138 0.07610093 -0.11405845 -0.032394677 0.11338565 0.01933901 0.015410572

net.4.weight f4 [20, 64]
00000000: a01e 123c 0003 34bd 40ef 05bd e0ea 073c
00000010: 66b4 c03d 6c4e 10bd a4fc 05bd a8ed c23c
00000020: 1465 3bbd 704c df3d 5c94 c03d c013 ac3b
00000030: 308c a5bd b44a 0f3d e219 d93d 64ac 283d
00000040: c09b 563d 1e81 87bd f82f fcbd b486 40bd
00000050: 60e6 823b d072 e33d 50ce d53c 48b8 bbbc
00000060: 2ca7 00bd 00cb c3bc 9ea8 89bd 6c59 56bd
00000070: d03c be3c c25d ad3d 1c70 d93d 7c2b 453d
00000080: 88e3 b0bd f2a8 ec3d 2832 f73d 4c27 18bd
00000090: 8038 8d3b 0abb e73d 6c0b 34bd f4b8 723d
000000a0: a852 aa3c 7ab3 8e3d 4463 323d 9afc fd3d
000000b0: 92f5 d83d a6ad aebd 180f 9a3d 1099 cabc
000000c0: 46f2 85bd 10c0 ab3c 1861 8bbc f6d3 a6bd
000000d0: 48f7 e1bd f2ab 8ebd b0da 523c d803 9c3d
000000e0: d4d9 963d ac89 083d 40d9 f23d 6042 dbbd
000000f0: 2222 a1bd 2865 5c3d 682d e9bd 6270 f13d
00000100: 5030 8d3c 88b2 3cbd 366d e43d acb7 6e3d
00000110: 8a4c d73d 50dd c03d 8837 b2bc 8664 e83d
00000120: 103b 873c b04f 463c bce8 313d 926a c8bd
00000130: 8211 99bd 743d f23d 4e87 a7bd 7a53 8a3d
00000140: f0b7 9a3d 6ad5 cfbd 60b7 6abc 004e afba
00000150: b0ec bd3d bc1b 0cbd 2438 e73d 54d0 d6bd
00000160: d8e4 553d cac6 8b3d 2c72 38bd bc60 28bd
00000170: ce0e a3bd 14d6 073d 0c94 2b3d 54f6 33bd
00000180: e406 cf3d 20e7 9cbc 308e 9fbc f8f0 c73d
00000190: 086b b33c 200a 893d d4e4 963d ac91 a7bd
000001a0: 0086 cfba 9e16 e23d 7e4c 9ebd 081d 863c
000001b0: ec29 be3d 7020 623c a09b e5bc a425 393d
000001c0: f2bf d3bd ba53 d23d be1a c93d 7460 0fbd
000001d0: 4838 39bd 184d c8bc 80b6 fe3d 5889 44bd
000001e0: 9850 193d 600b f3bd e8c2 1a3d a61c 9b3d
000001f0: 5cb9 253d e0a1 c2bb 5075 153c b8b0 dd3d
00000200: 5481 5e3d a89e ecbc f09e cdbd 4893 ba3d
00000210: dc9e 3ebd 469c 9f3d e0cc cdbc c0f6 073b
00000220: 02e4 c9bd 940d 43bd 90fa 283c 0466 f7bd
00000230: b0ba d2bc a8bf 943d aeed b33d 5291 bc3d
00000240: 1424 1cbd 7036 213c 7e6d cdbd 6c9c 843d
00000250: 384e b53c 5e47 d63d 304d 9fbc 2ad6 f43d
00000260: 90a9 7d3d 3479 da3d 8048 05bc 48dd c8bd
00000270: 7cc4 c8bd 2a61 f1bd 6034 aa3c a8f6 c5bd
00000280: dc3f 27bd c615 823d 10ba e83d 2c69 00bd
00000290: ee3d b13d a030 1bbc 30eb ccbc f05d 72bc
000002a0: 3828 68bd 0022 0c3d 0061 31ba a076 79bd
000002b0: b8d4 a23d e8ba 64bd 2062 adbd 08bd 313d
000002c0: a085 fbbb daec 8cbd 18fb d0bd 8c66 19bd
000002d0: bc02 c4bd c43c 8b3d 0019 7fbc ccda 833d
000002e0: 6839 793d 90f5 243c 98a9 9dbc e007 84bd
000002f0: 8888 e63c a89a debd 347e 79bd b826 cc3d
00000300: 68c1 c6bc 6885 ce3d b498 973d 78dd d7bc
00000310: 7a0d cebd 8097 cd3d 1087 2c3c 00ee f13d
00000320: 8e87 e7bd c804 d33c 2891 dcbd d0a6 78bc
00000330: 1a63 e0bd 5401 e9bd 20a1 ce3b 7462 fc3d
00000340: a0ec 1c3c 80bd 3dbc d0a0 ee3d 4078 3b3c
00000350: 0ef1 8ebd 80c9 a23d 20ab b63d 2afa dd3d
00000360: c252 c93d eef7 ed3d 50e4 3dbd 403d 933c
00000370: 90d4 3abd e84d 88bc 8865 ca3d 0246 cabd
00000380: 14e5 8b3d 92e9 93bd 00b2 333a c0d6 73bc
00000390: 789e 66bd b0a4 2e3c cead 81bd e4de e73d
000003a0: b859 39bd d808 a23d 28ea f3bc 748e c9bd
000003b0: 5cba c63d 2860 0dbd e81a 54bd 9089 193c
000003c0: 80ec a6ba 107a 103d 6073 f8bc ccb8 13bd
000003d0: 0611 8c3d 58ac 6a3d d246 e23d 3005 623c
000003e0: c8e9 04bd 7828 dabc 68ac d0bc 50ce 21bd
000003f0: 90bc 2ebd e441 10bd a068 1a3d bc95 4a3d
0.008918434 -0.043948174 -0.03269887 0.008295745 0.09409408 -0.03523104 -0.03271164 0.023794964
-0.045750692 0.10903251 0.09403297 0.005251378 -0.08083379 0.03498335 0.1060064 0.04118003
0.05239463 -0.06616424 -0.12313837 -0.047003463 0.003994748 0.11105883 0.026099354 -0.02291502
-0.031409428 -0.023900509 -0.06721614 -0.052331373 0.023222357 0.084651485 0.10617086 0.048137173
-0.08637148 0.11555661 0.120701134 -0.03714685 0.004309714 0.11314972 -0.043956205 0.059258416
0.020791367 0.06967826 0.0435517 0.124016955 0.10593714 -0.085292146 0.0752241 -0.024731189
-0.065403506 0.020965606 -0.017014071 -0.08145897 -0.11033493 -0.0696639 0.012869522 0.07617921
0.07365766 0.03333442 0.118578434 -0.107060194 -0.078678384 0.053807408 -0.11385614 0.117890134
0.017234951 -0.0460687 0.11153643 0.058280632 0.105126455 0.09417212 -0.021754995 0.11347298
0.016507655 0.01210396 0.043434843 -0.09785952 -0.074740425 0.118281275 -0.08180104 0.06754203
0.075546145 -0.101481274 -0.014325947 -0.0013374686 0.0927366 -0.034206137 0.11290005 -0.10488954
0.052220196 0.068250254 -0.045030758 -0.041107878 -0.07961808 0.033163145 0.041889235 -0.04393609
0.10108736 -0.019153178 -0.01947698 0.09762758 0.021901622 0.06691384 0.07367864 -0.081820816
-0.0015832782 0.1103947 -0.077294335 0.016371265 0.0928534 0.013801679 -0.02802831 0.045201913
-0.10339345 0.10269876 0.09819554 -0.035004094 -0.04521969 -0.024450824 0.12437153 -0.047982544
0.037430376 -0.11867404 0.037783533 0.07573824 0.040459976 -0.005939707 0.009122208 0.10824722
0.054322556 -0.028884247 -0.100400805 0.09110123 -0.04653822 0.07793479 -0.025122106 0.002074644
-0.09857942 -0.04762037 0.010313645 -0.12080005 -0.025723785 0.07263118 0.08785568 0.09207405
-0.038120344 0.009839639 -0.100306496 0.064751476 0.022132024 0.10462831 -0.019445986 0.11954911
0.061929286 0.10667649 -0.008134961 -0.09807831 -0.098031014 -0.11786111 0.020776927 -0.096661866
-0.040832385 0.06351809 0.113636136 -0.0313503 0.0865439 -0.009472042 -0.02501449 -0.014792904
-0.05667898 0.034212112 -0.0006766468 -0.060904145 0.07950729 -0.05584231 -0.084659815 0.043393165
-0.0076758415 -0.06881113 -0.10204142 -0.037451312 -0.09570834 0.067986995 -0.015569925 0.064382166
0.060845762 0.010068312 -0.019245908 -0.064468145 0.028141275 -0.10869342 -0.060911372 0.099683225
-0.024262145 0.10084039 0.07402173 -0.026350722 -0.10061164 0.10038662 0.010530248 0.11812973
-0.11305152 0.025759116 -0.10769874 -0.01517649 -0.10956402 -0.113772064 0.0063058287 0.12323466
0.0095779 -0.011580825 0.11651766 0.011442244 -0.06979571 0.07948589 0.08919358 0.10838731
0.09830238 0.116195545 -0.046360314 0.017973542 -0.04561287 -0.016638711 0.09882647 -0.09876634
0.068308026 -0.072222844 0.0006854832 -0.014882743 -0.05630347 0.010659382 -0.06331979 0.1132181
-0.045251578 0.07911843 -0.02977474 -0.09841624 0.09703514 -0.03451553 -0.051783472 0.009371176
-0.0012735277 0.035272658 -0.030328453 -0.036064908 0.068391845 0.057293266 0.11048664 0.013795182
-0.032449514 -0.026630625 -0.025472835 -0.039503396 -0.042660296 -0.03521909 0.037697434 0.049459204

net.4.bias f4 [20]
00000000: 1825 11bd dcb7 0a3d 6404 67bd 4020 d0bb
00000010: 707e 153d 18c7 643d 329f f7bd 3041 463d
00000020: 6c3c 46bd de50 b4bd fc0b 5abd 40be 30bb
00000030: 2825 7c3d 4000 e4bd d412 0b3d f8a6 e63d
00000040: 02a2 90bd 28b1 f43c 44d5 4dbd d0c0 fb3c
-0.035435766 0.03386675 -0.05640067 -0.0063515007 0.036497533 0.055853933 -0.12090911 0.04840201
-0.048397467 -0.08804487 -0.053234085 -0.0026968867 0.061558872 -0.1113286 0.033953503 0.112623155
-0.070621505 0.029869631 -0.050252214 0.030731589

net.0.weight f4 [64, 56]
00000000: 5539 133c 318f 6bbf 4382 393c c324 bf3c
00000010: 7b28 7ebe 8b2d c7be 3483 213d eac0 c33e
00000020: 585f 803e 6038 b2bc bdfb 59be ca97 823c
00000030: cf3b 393d 37c1 dc3c 6f4f 52be 978d 17bd
00000040: c022 a83d b703 e33d 9258 3d3d 085b 073e
00000050: c196 abbd 76b7 23bc 43d1 a9bd 65df 86bd
00000060: 8f34 ad3d b3ad aebd 4b0d 9c3b 3895 b83d
00000070: 365a 3cbe 4d4c 443d 61b1 debd 3299 203d
00000080: c64f 10bd 3769 e03c 58d7 a5bc 0385 8f3c
00000090: f14a 3dbe 4e99 52bd 9896 afbb f848 e3bb
000000a0: fe9f 023e 32f0 cdbd 4e90 52bd c9a1 0f3d
000000b0: cefb 8b3d 15cb 463d ca52 b13d 1666 8a3c
000000c0: 32aa 06bd ce20 e4bd b7c5 08be b993 d1bd
000000d0: af7b 893d 5df3 f53d e840 023e 12f6 cc3d
000000e0: 9412 023d c22d 98bc d73e 893e 3c00 23bf
000000f0: 4404 0b3e 1c71 b8be 21e3 40be 7483 acbe
00000100: 6736 893e ac7b cd3d 2dbb 3e3e c179 8f3d
00000110: ca8d a3bc c9e2 fdbc 06f8 cc3d a11f 3d3d
00000120: 5c18 2b3e 1c1e 623d cd6c 56bd adfa 2abe
00000130: 87e4 fdbd ca0d 643d 61b4 143e 115d 0fbe
00000140: db93 4abe d509 2a3d 7494 923d 16dc d7bd
00000150: 3ec4 5c3d aab9 fa3d 44e4 383d 70bb bb3d
00000160: b7a9 e7bd df53 a53d 1c6a 1abe b90c 7a3c
00000170: 9676 b93d 6d8f 90bd fc4d 47be 6b15 5bbe
00000180: 718b a6bd 60ef e2bd ff44 ffbd 6cbd dcbd
00000190: f1a4 be3d 6921 25bd 2ff5 c9bc 31fb 243d
000001a0: d910 103d d115 763d 7c3c c1bd b42d f33d
000001b0: 8ce8 2ebc cef5 81bd 67a5 b03d 998b e3bd
000001c0: cd93 2abe ce92 2ebe f450 4cbe b14c 0dbd
000001d0: 3330 053e bc47 57be a923 13be 6540 29bc
000001e0: d956 a03e 6404 9b3d 3a16 dbbd 9fbf 27be
000001f0: c80d 95bc 041d ccbd 556f 16be f5dc ec3d
00000200: 7ec2 173e 7ae8 e7bc ea8e a8bd 9fe7 d63c
00000210: bc24 9d3c 8cb8 86bd 7c9d f93d 5fba 06be
00000220: 43bc 1e3d bd1f b7bd ac2d 723d b49d ad3d
00000230: 918e 41bd b99c 9a3d a4a3 093e c906 ca3c
00000240: 9272 983d c1f6 d83c 8df9 eabd b52a bebd
00000250: db90 17bd 8ffc 6abd 4769 77bc 9bae e6bd
00000260: a821 b13d 26bb e03d bc7a c53d 235f f3bd
00000270: 69d2 21bd 708c 843d c5dd a13d 2159 f5bc
00000280: 05db 953d 4476 81bb d630 733c 7266 b83d
00000290: e237 bb3d d834 c1bd d426 a6bd 6ae6 413d
000002a0: 05d8 323e 32b0 4dbe 5097 ba3e 3a1e 8c3e
000002b0: f750 64be c1ac e03d 3499 84bd 7c68 e63d
000002c0: 102f 93be 821d c23d eea3 cbbe f0ca 453e
000002d0: 0d05 fdbd 0a74 ccbd 1543 9e3c da71 a1bd
000002e0: c9a4 393d ce77 c5be f5f2 eabd 2d45 21bd
000002f0: bd58 11bd b681 9dbc 518c febd d796 733c
00000300: 66b8 2e3d f994 263e cd95 d5bd cedd ddbd
00000310: 1fab 8ebe 380a 9dbd ecc9 e33d f968 3fbe
00000320: 3d7c 1fbe 18b8 083e d438 b73d e523 4a3d
00000330: c218 e63d de4d 62bd 03ef 803d aa4c e13c
00000340: 70ef 023e 5999 66bd e5ca b3bd 691b 40bd
00000350: 465e 523c 8a94 5c3d 408b c93d 9d92 c53d
00000360: 75d9 603c eb51 f93d f082 913d c904 923d
00000370: 85ad eabd 67de 323c 8c80 e8bc ed0a 02be
00000380: 2e27 813d 0973 3d3f cd57 33be 191c 493e
00000390: 5882 713e 3a35 453e 2649 953e 0873 843e
000003a0: 0747 07bf 96ce 763d 261b 6d3e 1b74 153e
000003b0: cb36 233e 40bd 9dbd b53f d0bd ce6b 1d3e
000003c0: 1066 583b d6a6 95bc a5b3 043d 1be0 debc
000003d0: 7725 713d 285d e1bb c8f8 29be 98e3 383e
000003e0: fb42 023e aa9c 2d3d 4041 3a3c d26d 183e
000003f0: 7e1b 383d 7762 583c 6e51 083d dd6a f1bd
0.008985837 -0.9201537 0.011322561 0.023332959 -0.2482013 -0.38901934 0.039431766 0.3823312
0.25072742 -0.021755397 -0.21287437 0.01594152 0.045223054 0.0269476 -0.20538114 -0.037000265
0.08209753 0.11084693 0.046227045 0.1321832 -0.083783634 -0.009992471 -0.08291867 -0.06585578
0.084572904 -0.08529224 0.004762327 0.09012836 -0.18393788 0.04792433 -0.10873676 0.0392086
-0.035232328 0.02739392 -0.020244285 0.01751948 -0.18485619 -0.051415734 -0.0053585283 -0.006936189
0.12756345 -0.10055579 -0.05140715 0.0350664 0.06835137 0.048533518 0.08658369 0.016894381
-0.032877155 -0.111390695 -0.13356672 -0.10233254 0.06713044 0.120093085 0.12720072 0.10007872
0.031756 -0.018576507 0.26805755 -0.6367223 0.13575846 -0.36023796 -0.18836643 -0.3369404
0.26799318 0.10033354 0.1862609 0.070056446 -0.019965071 -0.030991929 0.10008244 0.04617274
0.16708511 0.055204496 -0.052349854 -0.16697188 -0.12397104 0.055677213 0.14521934 -0.14000346
-0.19782965 0.041513283 0.071572214 -0.10540025 0.05389809 0.12242444 0.045139566 0.0916661
-0.113116674 0.08072638 -0.1507954 0.015261822 0.090558216 -0.07058606 -0.19463342 -0.21394889
-0.08132065 -0.110808134 -0.12464332 -0.10778317 0.09308804 -0.040315066 -0.024653045 0.040278617
0.035172317 0.0600794 -0.094353646 0.118739516 -0.010675561 -0.06345712 0.08625298 -0.111106105
-0.16657944 -0.17048189 -0.19952756 -0.034496967 0.13006668 -0.21023458 -0.14369072 -0.010330294
0.3131626 0.07569197 -0.10697599 -0.16381691 -0.018195048 -0.09966472 -0.14690907 0.11565582
0.14820287 -0.028309096 -0.08230384 0.026233492 0.019182555 -0.06578168 0.12188241 -0.13157032
0.03875376 -0.089416005 0.059125587 0.08477345 -0.047255103 0.07549424 0.1344133 0.024661439
0.074437276 0.026484849 -0.11473379 -0.092854895 -0.03700338 -0.057369765 -0.015100784 -0.11263772
0.086489975 0.10973196 0.0964255 -0.1188338 -0.039507303 0.06472099 0.07903627 -0.029949727
0.07317165 -0.003950866 0.014843186 0.09003915 0.09141518 -0.09433907 -0.081128746 0.04733888
0.17465217 -0.20086744 0.36443567 0.2736681 -0.2229651 0.1097045 -0.06474534 0.112503976
-0.28746843 0.094782844 -0.39773506 0.19315696 -0.12354479 -0.0998307 0.019319097 -0.078830436
0.045323167 -0.38567966 -0.114721216 -0.03937261 -0.035485018 -0.01922689 -0.12429107 0.014867506
0.042656325 0.16267766 -0.10428963 -0.108333215 -0.2786493 -0.07667965 0.11122498 -0.18692388
-0.15574737 0.13351476 0.08946386 0.049350638 0.11235191 -0.05525004 0.06295588 0.027502377
0.1278665 -0.056298587 -0.087789334 -0.04690114 0.012839859 0.053852595 0.09841013 0.09647105
0.013723721 0.12173828 0.071050525 0.07129819 -0.114588775 0.010917283 -0.028381608 -0.1269948
0.06306301 0.74003655 -0.17513962 0.19639625 0.23584878 0.19258586 0.2915737 0.25869012
-0.52842754 0.06025561 0.23154888 0.14595072 0.1593887 -0.07702112 -0.10168401 0.15373155
0.0033019818 -0.01826803 0.032397885 -0.027206471 0.05887362 -0.00687756 -0.16598809 0.1805557
0.12720864 0.042385735 0.011368096 0.14885643 0.044948094 0.01320707 0.033280782 -0.11787961

net.0.bias f4 [64]
00000000: 0333 933c 1b74 44be 62ee a33d eec9 9dbd
00000010: 93db 663d 7c2b 513e ee3f 2c3c d06e d8bd
00000020: e65f 88bd c396 c6bc ff1e c03c 7e86 af3d
00000030: 1017 90bd d08b 43bd 30ec 763d c562 fcbb
00000040: c690 c13c 0b39 503e c4af 71bd 3dd9 ee3d
00000050: c10d 84be c6df 81bd 17e5 cebd 5b6c 903d
00000060: 4329 133e d2e2 773c 5bdd 263e 0b93 3e3c
00000070: 8b85 163d eb33 9d3b 54db 3c3d 266a 2a3e
00000080: 1beb e63d bc33 bbbd d611 853c 47d6 46be
00000090: 7237 323e f09e 14be 4fbb f73d 681d a5bd
000000a0: 03c2 91bd 46af 00bd 53db 42bd 5f8e 45bd
000000b0: b789 f13d ff97 29be 3709 ddbd bc12 97be
000000c0: 767f 123e 3e5a 81bd 0a22 4f3c eefd 823e
000000d0: c812 953c 71aa 413d a999 5bbd 4f46 f1bd
000000e0: 7fec 24be ab8d 3c3e 3c39 123c b089 11be
000000f0: 9f5c 43bd 202d 94bc aff8 f0bd 6940 a2bd
0.01796866 -0.19184916 0.08004452 -0.07704531 0.056361746 0.20426744 0.010513289 -0.10568011
-0.06658916 -0.02424181 0.02345228 0.08570574 -0.07035649 -0.047740757 0.06028384 -0.007702204
0.023628604 0.2033426 -0.059005514 0.11662529 -0.25791743 -0.063415095 -0.10102289 0.07051917
0.14371209 0.015129762 0.16295378 0.011631737 0.03674845 0.004797449 0.046107605 0.16642055
0.112753116 -0.09140727 0.016243856 -0.19417678 0.17403963 -0.14513755 0.12096273 -0.080622494
-0.07117083 -0.031417154 -0.047572445 -0.04823148 0.11793845 -0.16561888 -0.10792773 -0.2950648
0.14306435 -0.063160405 0.012642393 0.25584358 0.018197432 0.047281686 -0.05361334 -0.117809884
-0.16105841 0.18413417 0.008924779 -0.1421268 -0.047695752 -0.018087924 -0.11766183 -0.079224415

net.2.weight f4 [64, 64]
00000000: dcff e63d 00ec 86be e8b8 013d d770 bebe
00000010: 07f8 b33e 7a34 15be 7208 a9bd 4dbc b73d
00000020: 20fe 93be a0d7 dcbd 96c0 69be 02ae a1be
00000030: d01e 453d e604 4e3c 8a7a 7e3e 2593 29bd
00000040: dd15 2e3e dd7c f6bc f19f d9bd f493 e4bd
00000050: a8e5 2dbd 8ad5 263e 4921 13be 2245 52be
00000060: 60c0 4dbb dfed a13c f60a eebd 2fe1 293e
00000070: c48a a1bd 6781 8ebe 56b1 01be f973 e53d
00000080: 5e0a 133e 74f6 03be e548 b3be eaa5 0b3e
00000090: 75f6 b6bd 4b00 7f3d a653 1d3d 1a73 34be
000000a0: c383 fd3d 3d9d 4fbd 7427 0abe e13f d5bc
000000b0: 3d93 533c 0279 31be 7afa a13b 7c2e 0abd
000000c0: 9784 c73d d8f7 91bc cd98 babe d607 6ebe
000000d0: 57fa afbe a9f2 50be 8a5e 20be d1fe 3fbc
000000e0: 4cdb febd 7541 88bc 8835 61bd ccd7 17be
000000f0: 8b3b 73bc 6dc5 d93c 4e75 173d 84d4 b23c
00000100: 545f a93b 97e1 76bc 4823 b5bc 3a1a eabe
00000110: 495a 4fbe 47fa 263c 458d d7bc 7fb3 9e3d
00000120: edc4 48bb 86cb 12bd 25de 45bd 1ae6 17be
00000130: 1f7b 563b baba 2e35 767f 7abd 9d6f 043e
00000140: 0b6d 0d3e 5d9e 203d 56de 053e 9c44 00be
00000150: 0486 bcbd 7e6f 8a3d d64d 66bc a8e2 083e
00000160: f2a8 4d3d 20c7 053e dc2e 19be 271d af3d
00000170: 5791 063d 10de b3be 0ed6 703b 1742 c8bd
00000180: 951d 5e3e 146f 62bb 7b7f 29bd 0e4f 5dbd
00000190: 0345 9a3d dfde 2f3e ef6f 43bd 2d30 3abe
000001a0: 3366 b9bd 1aa0 ee3d 689f aabd ec36 943d
000001b0: 285f 42be 9d96 0b3d f8da c0bc 4c43 05be
000001c0: 61d8 b33d 8fe6 08be b667 3f3d bfaf 6cbb
000001d0: 4a4a e5bd a3dd 433e d552 0c3e 448e 873d
000001e0: f885 92bd 62d9 88be 9586 76be 46a1 dabd
000001f0: 402f 6fbd 4c63 15be 2dd2 6dbd e919 dc3c
00000200: c5d5 2f3c 80e9 333b 88c7 5cbe 13b8 d6be
00000210: 9f20 753e 5686 60bd 94d4 1abe ae60 d43d
00000220: 53d2 f0be fed0 0bbe e633 5fbe a66a de3c
00000230: 51fa cbbd c6df e03d c6dc 513e 5bf5 123d
00000240: e98b 6a3e 0f1d d2ba 50b9 393e d0f0 33be
00000250: 7086 473e 8de5 09be 7c89 943e 4934 bfbc
00000260: eed9 bcbd e8cd 0b39 75e5 ba3d f879 69bd
00000270: 4cfc 2e3e 8308 123e 0984 59be 987e 18bd
00000280: f4f7 0fbe af95 e23d 5838 733b 9540 963d
00000290: e34d 843d 8888 0abe 9dc9 283e 390c 98be
000002a0: f817 edbc 7a5f 653d 72ce 43bd a691 81be
000002b0: ef6a 7cbd c849 c8bd 1347 e5bd 7a83 16be
000002c0: 54fa 41be 59e6 983d ac8f 453e 6539 c83d
000002d0: caaa 74bd ced7 533d 2ed8 7fbd fe17 e73d
000002e0: d55a 1dbd 8fb7 d2bd 193c 80bd 40fd 593d
000002f0: 011c e53d f64f 1d3e 1964 823d 71e5 8b3e
00000300: 6fe5 103c 6b5d 38be 0dd0 43bd 37eb d83d
00000310: f9e6 d43d e047 79be 5908 1dbe 5740 a8bd
00000320: f5eb e0bd 6cc5 433e 828f 6dbd dece dcbd
00000330: 58b5 dc3d 718e eabd 53cb 7abc a07a ee3c
00000340: ac8e 433e 4fdc 1fbd 7c8c 9e3e 3071 07be
00000350: 12c7 fcbe 50b2 5bbd 9276 bd3d 4637 5b3d
00000360: fd4f ffbd 0e85 00bd 5fe4 983d 2473 ca3d
00000370: dfae 8fbe 17fb 15bd 0787 28bd bbe2 32be
00000380: dfd1 bf3d 4653 58be 76a6 a53d 4179 e2bb
00000390: f7ec d83d 7968 9b3d 7eb4 34be 34ea a83d
000003a0: d164 bfbe 6cd7 a43d e7b3 b7bc e3e1 db3d
000003b0: 3176 00bc 0b3e 51bd cfa8 9a3e cf66 8dbd
000003c0: 8421 b53a 2419 8ebe ebe6 33be 635b 353e
000003d0: 2378 bf3d 42a9 273e 7baa 3c3e 4082 68be
000003e0: a435 673e 0831 f23c e8b3 86bc 49cc 533d
000003f0: e422 8cbe 46ca 733d e57f d33d d1e2 a43e
0.1127927 -0.2635193 0.03167048 -0.37195465 0.35150167 -0.145708 -0.08253564 0.089714624
-0.2890482 -0.10783315 -0.22827372 -0.3157807 0.04812509 0.01257441 0.24851432 -0.041400094
0.17000528 -0.030088836 -0.106262095 -0.11161032 -0.042455345 0.16292396 -0.14368166 -0.20534185
-0.0031395182 0.019766746 -0.116231844 0.16589807 -0.078877956 -0.278331 -0.12665305 0.11203761
0.14359424 -0.12886983 -0.35016552 0.1363751 -0.08933727 0.06225614 0.03840985 -0.17622033
0.12378647 -0.050687063 -0.13491613 -0.026031436 0.012913522 -0.17331317 0.004943189 -0.033735737
0.097420864 -0.017818376 -0.36444703 -0.23245177 -0.34370682 -0.20405068 -0.15661064 -0.011718468
-0.12444171 -0.016632775 -0.054982692 -0.14828414 -0.014845739 0.026583398 0.036977105 0.021829851
0.0051688347 -0.015068433 -0.02211155 -0.45723134 -0.20249285 0.010191507 -0.02631248 0.0774908
-0.0030634955 -0.035838626 -0.048307557 -0.1483387 0.0032727194 6.5091774e-07 -0.061156712 0.12933202
0.13811128 0.039213527 0.13073096 -0.12526172 -0.09205249 0.06759547 -0.0140566435 0.13367712
0.050209947 0.13064241 -0.14959282 0.08550482 0.03285345 -0.35130358 0.003674868 -0.09778231
0.21690972 -0.003455107 -0.04138134 -0.05403047 0.07532694 0.17174862 -0.04771417 -0.1818244
-0.09052696 0.11651631 -0.083311856 0.07237038 -0.18981612 0.034079183 -0.023541912 -0.13013953
0.087815054 -0.13369201 0.046729766 -0.0036115495 -0.1119581 0.19127516 0.13703473 0.06618932
-0.07154459 -0.2672835 -0.24074776 -0.10675292 -0.05839467 -0.1458866 -0.058061767 0.026867824
0.010732119 0.002745241 -0.2156049 -0.41937312 0.23938225 -0.054815613 -0.15120155 0.10370003
-0.47035465 -0.13653943 -0.21797141 0.027150463 -0.099598534 0.109801814 0.20494375 0.03587852
0.22904934 -0.0016030389 0.18137097 -0.17572331 0.19484878 -0.13466473 0.29011142 -0.023340361
-0.09221254 0.00013332779 0.09125797 -0.057001084 0.17088431 0.1426106 -0.21241774 -0.037230104
-0.1405943 0.11063706 0.003711244 0.07336537 0.06460168 -0.13528645 0.1648316 -0.29696825
-0.028942093 0.055999257 -0.047804303 -0.25306433 -0.061625417 -0.09779698 -0.11195197 -0.14698592
-0.18943149 0.0746581 0.19293088 0.09776572 -0.05973319 0.05171948 -0.062462024 0.11283873
-0.038416702 -0.10288917 -0.06261463 0.053220034 0.11186982 0.15362534 0.06366748 0.27323487
0.008843764 -0.18004386 -0.047805835 0.10591739 0.10395617 -0.24343824 -0.15335216 -0.08215397
-0.10982505 0.19118279 -0.057998188 -0.10781644 0.10776776 -0.1145295 -0.015307265 0.029111207
0.19097394 -0.039028462 0.30966556 -0.13226771 -0.4937063 -0.05363685 0.09251131 0.05351951
-0.124664284 -0.03137689 0.07465433 0.098852426 -0.28063104 -0.03661641 -0.041144397 -0.17469303
0.093662016 -0.21125516 0.080883905 -0.0069114272 0.105920725 0.07588286 -0.17646977 0.08247796
-0.37381604 0.08048901 -0.022424651 0.10736444 -0.007840679 -0.05108456 0.30206916 -0.06904375
0.0013819193 -0.27753556 -0.17568557 0.17710643 0.09349086 0.1637316 0.18424408 -0.22705936
0.22579056 0.029564396 -0.016443208 0.051708493 -0.2737037 0.059519075 0.10327128 0.32204297

net.2.bias f4 [64]
00000000: db15 4b3e f841 f53d 775c 973d f387 473d
00000010: b2dc 453e ba63 7ebc 7d37 12bd 84e3 453d
00000020: 2d8f c13d 12ef 0c3e 06fd de3d 0a8a b9bd
00000030: 9419 0e3d 8ad2 273e ab0f d93d d818 cb3d
00000040: ae03 f9bd 476e bbbb b726 7f3d 5a48 f93d
00000050: 08d3 823c 8a10 c6bd 4f4c bd3d ab4d 0b3e
00000060: de10 4abd 8ad0 81bd 2ea4 843d 52c4 073b
00000070: 4689 41bd 5ab6 973d c190 ad3d 5fb6 aa3d
00000080: c256 d1bc f03f 513d 9ff8 e03b f884 abbd
00000090: dc6f c8bd 18aa ee3d 3f79 273e c373 233e
000000a0: 90a0 b83d 7169 adbd af76 d93b f500 67bd
000000b0: b119 88bd 6e16 fdbd 18a6 64be 9a69 01be
000000c0: f1ed b73a 054a 9b3d 19d9 683d 49ed b6bc
000000d0: 943e 233d af34 4cbe 366c 16be 5902 94be
000000e0: 97d6 8b3d a8ad a7bd 54bb 49be 4194 3ebd
000000f0: 5505 453d 5a24 8abd c0d1 213e 1702 e13d
0.19832556 0.11975473 0.07390683 0.048713636 0.1932247 -0.015526706 -0.03569745 0.04831268
0.09451137 0.13763073 0.10888104 -0.09059532 0.034692362 0.16388908 0.105986916 0.09916848
-0.12158905 -0.005719933 0.06229278 0.12172003 0.015969768 -0.09671123 0.0924307 0.13603847
-0.049332492 -0.06338604 0.06476627 0.0020716381 -0.047250055 0.07407828 0.08474875 0.08335566
-0.025554065 0.051086366 0.0068655754 -0.08374971 -0.097869605 0.116535366 0.16354845 0.15962128
0.09015 -0.08467377 0.0066364626 -0.056397397 -0.06645525 -0.12357794 -0.22328985 -0.1263794
0.0014032704 0.075824775 0.056847665 -0.022329943 0.0398546 -0.19941972 -0.14689717 -0.2890804
0.06828039 -0.08187419 -0.19700366 -0.046528105 0.04810079 -0.06745215 0.1580267 0.10986727

mean_head.weight f4 [6, 64]
00000000: b63e 01bd 037e 63bd de9b 61bc a412 713d
00000010: a74f be3d f303 2bbd f470 0cbe 364d 9d3d
00000020: 336d bf3d ef45 423e 0429 143e 1d60 8b3d
00000030: 8088 ffbd 29b3 de3d f2cf efbd 2cd2 e83d
00000040: 37bb 04bd 9feb 29be ee3c 043e 08d9 25bd
00000050: 1bba 8fbd 5d4b fd3d bc1d 80bc 7066 31be
00000060: 148f 9bbe ae7a 6d3d 99ef 5cbe 710e 743d
00000070: 4b4a d63d a66f 86bd cdd7 8fbd 4728 62be
00000080: 2855 ad3d 200d 0c3e 79fa 1cbd d42f dcbd
00000090: e813 3bbd d79b 08be e4dc 8fbe 8a2a ab3d
000000a0: cbeb b83c e2f0 ad3d bdf8 633e 3c72 073e
000000b0: 444d 94be 3168 033e d53d bb3d febe 323e
000000c0: 91f5 40bb 36f9 05be 61d5 12bd cbf5 30bd
000000d0: 3c0c 9a3d 3eaa 8fbe a835 123d eee8 7e3e
000000e0: 0291 bf3d 8432 a7be 4d14 bb3e e39b 143e
000000f0: 0fb3 1ebe 59a6 d2bc d40e ed3d fdb6 75bd
00000100: 11af 60be c738 4dbe 9044 67bd b2b0 00be
00000110: 3d20 0cbb d8d1 bfbc 9205 83bd f5d1 48bd
00000120: 28ab 183e d7af 84bd d2e6 0f3d ba2d 84bd
00000130: a734 59be 7a9d 033e a6b0 003e 9b97 573e
00000140: c6c0 433e bb96 1dbe ac96 9abb 21a0 e5bd
00000150: ab3a 2f3c efe0 d1bd 78a9 30be e2ef 92bd
00000160: 8e46 3abe 8908 d13d 9462 793d 5274 a93e
00000170: f738 f9bc 4ff0 c63d f233 b0bd 45bd c4bd
00000180: fa86 0fbe 5c36 103e f113 583d ed4f d4bd
00000190: 8726 55bd 3691 7abd 54f7 113e a5d6 a4bd
000001a0: 60cc bfbe 2fb5 c0bb 0bff 083e 6f9e d4bc
000001b0: cc52 a93d 66d5 2abc 06e3 ffbd b6da d0bb
000001c0: 7c79 1dbe 5d35 b0bc b124 0a3e 248e 883c
000001d0: e103 b8bd 3b50 043d 9e85 743e babf 4a3e
000001e0: ce60 893c 99b7 3f3d cc65 ad3e 0e43 b0bc
000001f0: ee07 0fbe c2f0 89be e0ad e13d 3c2b a3bd
00000200: f9f5 023e 419a 103e 12d0 c6be 2b34 c63d
00000210: 4d85 b4bd abad cc3c 0f00 373e 469f 1a3e
00000220: a696 bc3d 0054 273e 0863 29bb 289c 183e
00000230: 84c3 60be 8a1c 453d 7a37 3cbd d02b d9bd
00000240: 230e fdbc 7617 b03d 2645 8abd 5eb2 57bd
00000250: d86b 81bc d5f4 d1bd 7a2d ce3c ffa3 09be
00000260: cdcc 31be 1475 afbd 3e68 29be 4851 2bbd
00000270: 0d82 1cbe 259d 90bd 34a7 4abe 4d76 463d
00000280: eebc 8b3d 6f4b ea3d e018 7c3c 3452 e83c
00000290: a3c7 283b 776f 093e 77ba aebd 7bf0 6e3e
000002a0: 4392 1bbe bc18 6a3e 8dcc 9f3d 13fb 8c3d
000002b0: 3c89 69be 21f6 f53d 8e27 58bc 9972 ebbe
000002c0: 0777 a23d 066c 2c3e e566 533d 68b2 fabd
000002d0: 66b7 34bd e359 45be 033f 67be 4e41 eebe
000002e0: eea4 ffbd 81a9 903d 7177 5c3d 212e 99bd
000002f0: a106 45be 3efd 13be b3a5 ad3d 8fd8 06be
00000300: a3ba 153c ce32 473d 866e 9ebe 73ce 813d
00000310: 96aa c0bd 8d5f 94be 3ce6 d53b 77f2 803d
00000320: a0f4 9d3d 665c 5d3d ac1c 68be c338 c0bd
00000330: ff30 39bd bf95 88bd 92ad 12be ba4b eb3d
00000340: 8748 31be e07b 613c 2325 263e be83 a2bc
00000350: 4881 823e 8c30 f43c 2d8c 243d 2e9b 1cbe
00000360: ac97 49bd 60c6 99bd a74b e8bc 8791 d8bd
00000370: a444 6ebe c46a 173e f26a aabd f32c 103e
00000380: 577d f73d 6545 333e c410 1d3e 4179 01bc
00000390: 2aea 4bbd 3b5a e73c 454e 2f3d 5d06 b93d
000003a0: d937 82bc 7942 0dbe 0fb4 e63c 79dd 21bc
000003b0: bd33 08be 5c2c ae3d d26a a8be d8c6 b5be
000003c0: a69e 9ebc ee1c 0b3d b99a 2bbc 367e 903d
000003d0: 21c3 0fbd c5d8 cc3d d8b9 16be 5082 1abf
000003e0: 37ce dd3d 42d1 b73d 718b 4fbe 5e64 4a3e
000003f0: 0e69 f13d 31d1 843b fee2 44be abb7 483d
-0.031553946 -0.055540096 -0.013770072 0.058855668 0.09292536 -0.041751813 -0.13714963 0.076807424
0.09347 0.1897199 0.14468771 0.068054415 -0.12477207 0.10874016 -0.11709584 0.11368212
-0.032405104 -0.16593789 0.12913868 -0.04049018 -0.07017919 0.1236789 -0.015639178 -0.17324233
-0.30382597 0.057978325 -0.21575774 0.059584085 0.10463389 -0.06564264 -0.070235826 -0.22085677
0.08463508 0.13676882 -0.038324807 -0.1075131 -0.04567328 -0.13340698 -0.28098214 0.08357723
0.022573372 0.084932104 0.22262855 0.1322717 -0.289652 0.12832715 0.09142653 0.1745567
-0.0029443244 -0.13083348 -0.035848025 -0.043203156 0.07521865 -0.28059572 0.0356957 0.24893543
0.0935383 -0.32655728 0.36538926 0.14512591 -0.15497993 -0.025714086 0.11575094 -0.059988964
-0.21941783 -0.2004119 -0.05646187 -0.12567404 -0.002138152 -0.023415491 -0.06397547 -0.049028356
0.14909041 -0.06478851 0.035132237 -0.06454034 -0.21211492 0.12853041 0.12567386 0.21053927
0.19116506 -0.1538953 -0.0047176685 -0.11212183 0.01069514 -0.10247981 -0.17252147 -0.0717466
-0.18190977 0.10206706 0.060885027 0.33096558 -0.03042267 0.09713804 -0.08603658 -0.09606413
-0.14016333 0.14083236 0.052753393 -0.10366807 -0.052038696 -0.06117364 0.14254504 -0.08048753
-0.37460613 -0.005880974 0.13378541 -0.025954453 0.082677454 -0.010426855 -0.12494473 -0.0063737286
-0.15378374 -0.02150982 0.13490559 0.01666934 -0.08985115 0.032303076 0.23879096 0.197997
0.016769793 0.04680595 0.33866727 -0.02151635 -0.13967869 -0.26941496 0.11019492 -0.07967231
0.12789144 0.14121343 -0.3883062 0.09677919 -0.088144876 0.024985155 0.17871116 0.1509982
0.092084214 0.16340637 -0.002584638 0.14903319 -0.21949583 0.04812292 -0.045951344 -0.1060406
-0.03089053 0.08598225 -0.0675147 -0.05266034 -0.015798494 -0.10251776 0.02516817 -0.13441466
-0.17363282 -0.08567253 -0.16543671 -0.041825563 -0.15283985 -0.07061223 -0.19790345 0.048452664
0.06823145 0.11440169 0.01538679 0.02835951 0.0025753758 0.13421427 -0.08531659 0.23333924
-0.15192513 0.22860998 0.07802687 0.06883826 -0.22806257 0.12009836 -0.013193024 -0.4598587
0.07932859 0.16838083 0.0516118 -0.122410595 -0.044120215 -0.1927257 -0.22582631 -0.465342
-0.1248263 0.0706358 0.053824846 -0.074795015 -0.1924081 -0.14452073 0.0847887 -0.13168548
0.009138736 0.048632436 -0.30943698 0.06338205 -0.09407537 -0.2897915 0.00652769 0.062962465
0.07712674 0.054043196 -0.22667187 -0.093858264 -0.045212742 -0.06669187 -0.14324024 0.11489053
-0.17312823 0.013762444 0.16225104 -0.01983821 0.2548926 0.029808305 0.040172745 -0.15293571
-0.04921691 -0.0750854 -0.028356386 -0.10574632 -0.23268372 0.14786822 -0.083211794 0.14079647
0.120844536 0.1750694 0.15338427 -0.007902444 -0.049783863 0.028241267 0.042799253 0.09034417
-0.01589577 -0.13794889 0.02816203 -0.009879463 -0.13300987 0.08504555 -0.32893997 -0.35503268
-0.019362759 0.033963136 -0.0104739005 0.07055323 -0.0350982 0.10002283 -0.14719331 -0.6035509
0.10830348 0.0897546 -0.20268036 0.1976485 0.11787616 0.004053258 -0.19227216 0.049003284

mean_head.bias f4 [6]
00000000: 4f53 f43d c489 aebd ce90 023e 6de1 773d
00000010: e5fc ebbd f6cb 58bc
0.11929952 -0.085223705 0.12750551 0.060517717 -0.11522845 -0.013232222
