lambda_run_001/checkpoints/phase2_50.pt (torch, 151423 bytes, 34 tensors)

net.0.weight f4 [64, 20]
000000 18 0f 2f 3e b9 0c 3e 3e 91 91 56 bd 67 56 52 3e
       0.17095602 0.18559541 -0.052384917 0.20540772
000010 ef ac 48 bd 9b d1 38 3d 23 f4 de bd da 78 06 3e
       -0.048993047 0.04512177 -0.10886409 0.13132039
000020 8f d9 49 3e 37 fb 27 be d4 05 47 3e 00 6b 2b 3d
       0.19711898 -0.16404425 0.19435817 0.04185009
000030 e4 2a 29 3e 77 14 f8 3c 03 d1 dc 3d e0 50 01 bd
       0.16520268 0.030283196 0.10782053 -0.03157127
000040 27 83 30 3e 91 60 07 3d ad c9 d5 bd ae 75 69 3d
       0.1723753 0.033051077 -0.10438857 0.056996994
000050 2a fe d2 bd a2 d1 d6 bc b6 ff b9 bd ef e4 17 3e
       -0.10302384 -0.026223008 -0.09081976 0.14833425
000060 a7 be 34 be 40 1e d3 bd 06 50 81 bd e5 ac 09 be
       -0.17650853 -0.10308504 -0.063140914 -0.1344486
000070 c7 e3 ac 3c f7 26 62 be b5 c9 4e 3e 6f 81 42 be
       0.021104706 -0.22085176 0.20194133 -0.18994687
000080 11 c6 30 3e 16 6c 18 3d 87 b2 94 bd 7c 7e 0d 3e
       0.17263056 0.037212454 -0.07260614 0.13817781
000090 21 be 0e 3d 89 00 39 3e 18 40 c8 3c 93 6c 90 bd
       0.03484929 0.1806661 0.024444625 -0.07051959
0000a0 eb 15 76 3d 18 5f 78 bd f7 ba c0 3d b7 6e 4c 3e
       0.060079496 -0.060637563 0.09410661 0.1996411
0000b0 39 5c 04 3e a4 33 c8 bd a0 2d 04 3e 9b e0 23 3d
       0.12925805 -0.09775475 0.1290803 0.040009122
0000c0 b7 8f e8 3d 78 8f 0b be a4 a9 62 be bb ee b0 bd
       0.113555364 -0.13628948 -0.22135025 -0.08639284
0000d0 b7 a0 2f be ad e1 3b 3e 2b e7 83 3d 0f b0 bd 3d
       -0.17151152 0.18347807 0.06440576 0.09262096
0000e0 ad d4 90 3d fc ec 7e bb 4a 32 33 3e 4e b0 22 be
       0.07071815 -0.0038898578 0.17499653 -0.15887567
0000f0 18 ac 66 3c 95 48 1c be 73 35 8d 3d 70 b5 9d bd
       0.014079116 -0.15262063 0.0689496 -0.07700622
000100 84 52 8c 3d 8f d1 3e bd 9c e8 3d 3e 84 b6 07 be
       0.06851676 -0.04658657 0.18545765 -0.13253218
000110 2b 8f 08 be 47 91 08 be cd f2 4d 3e 7b 9c 98 3d
       -0.13335864 -0.13336669 0.20112152 0.07451721
000120 6c 54 5c 3e 5e f7 3c be fb 1c 63 be f5 23 33 be
       0.2151658 -0.18453738 -0.22179024 -0.17494185
000130 23 07 1a be 9f 7c b9 3d cb fa a3 3d 72 42 3e 3e
       -0.15041785 0.09056973 0.08006819 0.18580034
000140 cc 7e ec bd 06 18 1c be fd f9 f2 3d a7 1a b9 bd
       -0.11547622 -0.15243539 0.11864088 -0.09038287
000150 2a f8 0a 3e 93 57 59 bd b8 fb 02 3e ac e7 31 be
       0.1357123 -0.053062033 0.12791336 -0.17373532
000160 4b 1a e7 bd ff 9d 8b 3d 75 a0 41 3d da 83 69 bd
       -0.11284312 0.06817245 0.047272164 -0.05701051
000170 e9 7b 08 3e 80 a8 1b 3e 9e 0b 26 be b2 7b f4 bd
       0.13328518 0.15200996 -0.16215369 -0.119376555
000180 85 a9 51 3e af 86 9a bd 80 59 a2 bd ab 8d 5d be
       0.20474823 -0.0754522 -0.07927227 -0.21636073
000190 50 20 03 be 25 cb 64 3d 8b c8 f1 bc 64 35 26 be
       -0.12805295 0.055857796 -0.029514572 -0.16231304
0001a0 e3 de ab 3b 50 68 1c be 9f 42 42 be 95 2c fc bd
       0.005245076 -0.15274167 -0.18970726 -0.12313191
0001b0 77 66 48 be ca cb 11 be 41 e2 64 3e 45 fd 2c 3d
       -0.19570337 -0.14237896 0.22351934 0.042233724
0001c0 e8 1e 8d 3d 53 8f 55 be 3a 62 16 be 24 6e 98 bd
       0.068906605 -0.20855455 -0.14685908 -0.07442883
0001d0 23 38 0f 3d 82 7a 49 be 20 51 c5 bd 43 14 09 be
       0.034965646 -0.1967564 -0.09634614 -0.13386635
0001e0 7f 71 22 3a 48 67 aa bd c2 de 7d bc be 28 1b be
       0.0006196722 -0.083204806 -0.015495004 -0.1515226
0001f0 8d 2a 1d be 5e 95 05 be 05 c1 9c bd 6b b9 34 be
       -0.15348263 -0.1304526 -0.07654003 -0.17648856
000200 bd fc 3f 3e 9c c5 35 bd 08 02 45 3e 20 b0 8e 3d
       0.18748756 -0.044377908 0.19239056 0.06967187
000210 da e4 41 be 27 75 1e 3e da 00 7c bd fc 8a af bd
       -0.18934956 0.15474378 -0.06152425 -0.08571431
000220 64 10 3e be e5 a2 63 be ff 05 83 3d 41 12 48 bd
       -0.1856094 -0.22230108 0.06397628 -0.048845533
000230 0c 4a b2 3d fa e8 3b be 1a ff 29 3e 29 14 28 be
       0.087055296 -0.18350592 0.1660122 -0.1641394
000240 7f 26 1e bd 69 4d 3f 3d 73 6a ec 3d 41 da 38 3e
       -0.03861093 0.046704683 0.11543741 0.18052007
000250 dd 95 50 3e dc 8e 35 be 1a 80 66 3d 8a f9 c4 bd
       0.20369668 -0.17730278 0.05627451 -0.09617908
000260 6b bc c8 bc 61 62 2b be f7 8f 50 3e 1c 0e 28 be
       -0.024503907 -0.16736747 0.20367418 -0.16411632
000270 0d c0 f4 3d cc f0 a0 3d 00 d0 94 3d 4f 96 f7 bd
       0.11950693 0.07858428 0.07266235 -0.12089216
000280 2d 20 50 3e 99 44 49 3d 23 a4 eb 3c ac c8 49 be
       0.20324774 0.049137685 0.02876479 -0.19705456
000290 a2 3d c0 3d 23 67 09 bd e8 cb d1 bd 06 ad 44 3e
       0.093867555 -0.033545624 -0.1024397 0.19206628
0002a0 84 32 4c 3d 02 5f fd bd df c8 e7 bd e3 f4 2e bc
       0.049852863 -0.12371637 -0.1131761 -0.010678503
0002b0 21 b3 ff 3d b0 0a 6a bd 7e a5 02 be 12 d2 9c bd
       0.12485338 -0.0571391 -0.12758443 -0.07657255
0002c0 6c 0f 2b be 94 51 a3 3d 0e 3c 31 3e 94 90 57 be
       -0.16705102 0.07974544 0.17308065 -0.21051246
0002d0 86 b7 54 3d 4f 92 ec 3d 11 14 26 3d 0b 16 a3 bd
       0.051932834 0.11551344 0.04054648 -0.07963189
0002e0 8d 05 ef 3d 33 a8 f0 3d 1f 3d ab 3d 2c f1 20 bd
       0.116709806 0.117508315 0.08361267 -0.0392925
0002f0 9d 87 72 bd 5c f7 c3 3c dc cb 21 bd f6 77 88 bd
       -0.059211362 0.023921661 -0.039501056 -0.06663506
000300 81 5c 12 3e 94 c7 44 3e 91 57 b5 bc cf 10 4d bd
       0.142931 0.19216758 -0.022136481 -0.050064858
000310 f8 d6 55 3b db be 5a bc ed 30 5c 3d 02 55 80 3d
       0.0032629352 -0.013351168 0.053757597 0.06266214
000320 73 f7 4f be e7 ff a8 bd 41 d3 40 3e 3a 65 b2 3d
       -0.20309238 -0.082519345 0.18830587 0.08710714
000330 9f 37 36 bc a2 0c 0a be 4a 16 0c be 54 1b 4d be
       -0.01112166 -0.13481382 -0.13680378 -0.20029956
000340 ff 45 95 bd 89 a6 9a 3d 95 ff 11 3e cb 6e d3 3d
       -0.07288741 0.07551295 0.14257653 0.103238665
000350 4e 66 4a be 2c b2 09 be 11 8b 10 bd 4d 7f 5d 3e
       -0.19765589 -0.13446873 -0.035288874 0.21630593
000360 a8 7d 04 3d 89 30 6d bd a4 75 bd 3d 67 6c ae bd
       0.032346398 -0.057907615 0.09250954 -0.0851677
000370 4d 34 14 be ef 1f 27 3e ac 3a d0 bd 2f 9b 37 bd
       -0.14473076 0.16320775 -0.10167441 -0.04482573
000380 9f c8 63 be c2 3e 19 3e 68 7a 2d 3e da e5 a6 3d
       -0.222445 0.14965346 0.16941226 0.081493095
000390 3f a8 1f be a2 fb 61 be a4 f7 39 be d8 be 2a 3e
       -0.15591525 -0.22068647 -0.18160874 0.16674364
0003a0 e4 dc db 3d 9e ae 40 3e 8d e7 ef 3d 32 ce 67 3d
       0.10735491 0.18816611 0.11714087 0.056593128
0003b0 41 81 0f bb b8 22 2e be 92 2d 44 be 80 2b 56 be
       -0.002189711 -0.17005432 -0.19158009 -0.20915031
0003c0 49 77 bb 3d 51 d6 e0 bd 6f 53 38 bd 7f c6 03 be
       0.09153611 -0.109783776 -0.045001443 -0.12868689
0003d0 b9 e5 26 bd d1 28 21 be 62 9d 15 be e8 e7 97 3d
       -0.040746424 -0.15738226 -0.14610818 0.074172795
0003e0 a1 19 88 bd eb 5a 0d 3e cf e9 92 bd a5 f7 27 be
       -0.06645513 0.13804214 -0.07173502 -0.16403063
0003f0 69 99 21 bd 0d fd dd bd de 1a 8c bd 4c fb 59 be
       -0.039452944 -0.10839281 -0.06841062 -0.21287268

net.0.bias f4 [64]
000000 55 ac 25 be 7f db 64 bd 51 e0 ae bc 4c d7 fe bd
       -0.1617902 -0.05587339 -0.021347197 -0.12443408
000010 d3 1f 29 be f2 02 1a 3e 45 64 1b 3e 6f f3 4f be
       -0.16516046 0.15040186 0.15174969 -0.20307706
000020 5f b9 91 3d 31 4b ba 3d 77 84 59 3e 2f 79 04 3e
       0.07115435 0.09096373 0.21241938 0.12936853
000030 ec 80 52 3e 53 ed 95 bd ad 5e 20 3e 4b 3f 3a 3e
       0.20556992 -0.073206566 0.15661116 0.18188207
000040 d9 39 58 be 67 cc 37 be bf 61 39 3d 64 0e fa 3d
       -0.21115817 -0.17949067 0.045259234 0.12209776
000050 90 83 e3 bd 2f be c9 3c 56 31 aa b9 d5 d1 67 3d
       -0.11109078 0.02462682 -0.00032461685 0.056596596
000060 d5 13 f6 bd 60 26 01 3e f9 44 18 3e 04 e0 1e be
       -0.120155014 0.12612295 0.14870061 -0.15515143
000070 5d f6 0d 3b 96 a3 22 3a cc 0d 93 3d db 4e 55 3e
       0.0021661737 0.0006204186 0.07180366 0.20830862
000080 8d 4c 86 3d 71 1c 50 bd 05 a6 4d 3e 87 43 ae bd
       0.0655757 -0.050808374 0.20082863 -0.085089736
000090 8d f9 84 bd b8 21 7a 3c 80 5d 2e be 86 54 c7 3c
       -0.064929105 0.015266828 -0.17027855 0.024332296
0000a0 52 5a 1b be 72 58 bc 3c c0 7f af 3c a6 8e fd 3c
       -0.15171173 0.022991393 0.02142322 0.03095181
0000b0 9c 17 41 be ad 79 59 be 90 b5 d2 3d db 5d 44 3e
       -0.18856663 -0.21237822 0.102885365 0.19176428
0000c0 44 2f 4b be ee 9e a9 3d 5e 8d 28 be a0 ac 65 3c
       -0.19842249 0.082822666 -0.16460177 0.014018208
0000d0 f2 06 55 3e 1e b4 2d 3e 5a 69 27 be f0 a2 0d 3e
       0.2080343 0.1696324 -0.16348782 0.13831687
0000e0 85 31 ef 3d 61 d2 b3 b9 08 d0 5d 3e 94 e2 b5 bd
       0.11679367 -0.00034298285 0.21661389 -0.08881107
0000f0 96 24 55 bd e7 73 e7 bd 4d cb 03 3d 34 84 72 3d
       -0.052036844 -0.113014035 0.032176305 0.05920811

net.2.weight f4 [64, 64]
000000 60 2f 23 3c fc 08 90 bd 38 7c 66 bd 78 28 2e 3d
       0.009960026 -0.07032964 -0.056270808 0.042519063
000010 b2 77 e0 bd e0 78 9f bc 40 77 35 bb a4 71 4f bd
       -0.1096033 -0.019466817 -0.0027689487 -0.050645486
000020 78 53 3a 3d 50 00 04 3c 82 ba b3 3d d0 e2 35 bc
       0.04548976 0.008056715 0.08775808 -0.01110144
000030 4a 92 a1 bd 94 e0 b4 3d 18 00 8f 3c c8 a2 12 bd
       -0.078892305 0.088318974 0.0174561 -0.03579977
000040 f6 ba a8 bd a8 03 f0 3c 20 29 f4 bd 74 d9 06 3d
       -0.08238785 0.029298618 -0.119219065 0.032922223
000050 dc 27 7d 3d 36 90 e0 bd 9c 98 a7 bd 86 0b b8 bd
       0.06180559 -0.10965006 -0.08183405 -0.08986573
000060 70 2b d7 3d 82 a1 d9 3d e0 34 00 3c 94 55 f0 3d
       0.10506332 0.10626508 0.007825106 0.11735073
000070 e4 29 2b bd ce 87 f8 bd c8 d6 32 3d b0 62 35 3d
       -0.041787997 -0.12135278 0.043661863 0.04428357
000080 56 fa fa 3d 00 c0 17 b8 8a 32 c4 3d 32 eb 9c 3d
       0.12254779 -3.618002e-05 0.09579952 0.076620474
000090 ea 48 b9 3d 7a 09 fe bd 24 ce d2 3d 5a 3a da bd
       0.090471104 -0.12404151 0.102932245 -0.10655661
0000a0 c0 81 e5 3d a0 bd a9 bb 20 df e2 bd 2c 62 0e 3d
       0.112063885 -0.0051800758 -0.11077714 0.034761593
0000b0 90 6e d0 bc 00 f0 e5 bd 9c 9e 39 bd d0 28 53 3c
       -0.025443345 -0.11227417 -0.045317277 0.012888148
0000c0 7e 62 c7 3d 6c 67 1d bd 48 0e 98 3d e8 3b 80 3c
       0.09735583 -0.03842871 0.07424599 0.015653566
0000d0 40 11 8a 3b f0 ef c3 3c 3a 01 a8 bd 68 c9 d4 bd
       0.004213482 0.023918122 -0.08203359 -0.10389978
0000e0 58 e0 20 bd fc 8d ee bd 80 c5 6e bd a0 70 bc 3b
       -0.03927645 -0.11648175 -0.05829382 0.0057507306
0000f0 9e 9a a8 bd 24 60 54 bd b8 ff b7 bc c0 ef 6b bc
       -0.08232616 -0.0518495 -0.022460803 -0.014400423
000100 d4 50 8d bd 20 d1 c4 3b a8 ba 8f bc 04 6e 12 3d
       -0.06900182 0.006006375 -0.01754506 0.03574945
000110 80 01 b9 3b 64 ad 7f bd fc 45 30 bd 80 d6 bc ba
       0.0056459308 -0.062421218 -0.043035492 -0.0014407188
000120 80 bd 9f bd e0 53 20 3c c0 99 10 bc 20 a5 46 3d
       -0.07799816 0.009785622 -0.008825719 0.04849732
000130 80 58 f2 3c 10 96 bf 3d c0 06 87 bb e4 28 bd bd
       0.029583216 0.09354794 -0.0041206777 -0.09236315
000140 5c de 64 3d b6 03 ad bd 50 c0 8c bc 78 c9 25 bd
       0.05587612 -0.084479734 -0.017181545 -0.04047534
000150 8c 46 42 bd 88 6e 3d bd 60 3e eb 3d 88 8c 92 3d
       -0.04743056 -0.04624799 0.114865065 0.071557105
000160 f4 e4 0d 3d 76 5f f0 3d 2a fe e7 bd 88 3d a5 3c
       0.034642175 0.11736958 -0.11327775 0.020170942
000170 9a e2 a3 3d e8 0e aa 3d 12 bd cb bd 28 37 36 3d
       0.08002205 0.083036244 -0.09948172 0.044486195
000180 f0 d6 91 bd e0 0b a0 bb a8 ad d5 bc 3c c0 d5 bd
       -0.07121074 -0.004884228 -0.026083782 -0.104370564
000190 bc 33 f4 bd 00 6c a8 bd 9c 54 68 3d fc 34 6a 3d
       -0.1192393 -0.08223724 0.056721315 0.057179436
0001a0 d6 a8 de bd 14 47 40 bd c0 cf 05 3b 48 55 dd bd
       -0.10872047 -0.046942785 0.0020418018 -0.10807282
0001b0 8e 3e 90 3d 14 de e7 3d 40 1b b5 3c 38 36 be bd
       0.07043181 0.11321655 0.02210772 -0.09287685
0001c0 68 c8 ee 3c ec dc 39 3d 3a b6 ca 3d bc 35 88 bd
       0.029148296 0.045376703 0.09898038 -0.06650874
0001d0 58 5a e5 bd 90 f2 60 3d 80 00 ff 3b b8 d2 26 bd
       -0.11198872 0.054918826 0.007782042 -0.0407283
0001e0 18 8a 56 bd 66 ff 83 bd 32 3b cf 3d 18 ae b0 bc
       -0.05237779 -0.06445198 0.101187125 -0.02156739
0001f0 06 a1 b8 3d b0 84 e4 3d 60 b7 81 3c 48 21 da 3c
       0.09015088 0.11158121 0.01583451 0.026627198
000200 80 7a 0b bc 22 d3 af 3d b2 ad e6 bd 1c 9d 4b 3d
       -0.008513093 0.08585192 -0.112635985 0.049710378
000210 d0 d6 a6 bc 9c c9 69 3d 00 f3 11 ba 84 93 3d bd
       -0.020366102 0.057077035 -0.0005567521 -0.04628326
000220 e0 14 5d bc f8 3c 8a 3d b6 cc b1 bd 40 d1 a1 bd
       -0.0134937465 0.0674991 -0.08681624 -0.079012394
000230 50 5f e5 bc 08 b7 39 bd 38 22 49 3d c0 47 ac 3d
       -0.02799955 -0.045340568 0.0491049 0.08412123
000240 80 56 5b bc 20 11 f2 3d 80 ec 55 bd 24 a8 8f bd
       -0.013387322 0.118196726 -0.052227497 -0.07014492
000250 28 38 65 bd 7e 60 b0 bd 66 70 b3 bd 98 19 e4 bd
       -0.055961758 -0.086121544 -0.08761673 -0.11137694
000260 32 e3 e2 bd 9c a1 05 3d 64 1f 9c 3d 4c 58 f0 3d
       -0.1107849 0.032624826 0.07623175 0.11735591
000270 64 0f da 3d 60 e7 eb bb 28 b4 c6 3c 7c 2b 99 bd
       0.10647467 -0.007199213 0.024255827 -0.07478997
000280 18 e6 45 3d 9c 76 f5 bd 1c 7f 71 3d 48 d1 bb 3c
       0.048315138 -0.119855136 0.05895911 0.022926942
000290 fc 56 1d 3d cc 77 3b 3d c8 0f 6b bd dc ac db 3d
       0.038413033 0.045768544 -0.057388097 0.1072633
0002a0 70 5a 74 3d 40 2a a8 3d 98 3f 87 3c ba c3 a0 3d
       0.05965656 0.082111835 0.016509816 0.07849832
0002b0 cc 49 ac 3d 68 0e 68 3d 46 03 c3 3d 20 bb b9 bc
       0.08412513 0.056654364 0.09522109 -0.022672236
0002c0 4a 54 a8 3d c0 ed eb 3c c0 08 9a 3d f8 57 f9 3d
       0.08219202 0.028799891 0.075212 0.12174982
0002d0 20 df e7 3c 98 09 3e bd a0 c4 4b bc 80 24 10 3d
       0.028304636 -0.046395868 -0.012437016 0.03519106
0002e0 e8 a7 ac 3c f4 dc 0b bd aa 94 c8 3d 82 ce 99 3d
       0.021076158 -0.034146264 0.097939804 0.07510091
0002f0 ee 03 9f bd c0 df 26 bc 60 98 44 bc 6e 71 a0 bd
       -0.077644214 -0.010185182 -0.01199922 -0.07834135
000300 00 5b 95 3c 2c 2e 1d bd b6 29 84 bd d0 a1 24 bd
       0.018231869 -0.03837411 -0.06453268 -0.04019338
000310 88 8d 36 bd 5c e6 f4 3d 8c 63 44 3d d8 ee fb 3d
       -0.04456857 0.11958 0.047946498 0.12301415
000320 5c 63 0c 3d 98 dd e7 3c dc 7a 52 3d 70 c0 af 3c
       0.034274444 0.028303906 0.0513867 0.021454066
000330 c8 e6 c8 bd f2 62 97 bd e0 17 f8 bc 00 4e f6 3a
       -0.09809643 -0.07391919 -0.030284822 0.0018791556
000340 b8 e0 40 3d 0c 25 45 3d 96 16 cb 3d 60 75 d0 3c
       0.04708931 0.048131034 0.09916417 0.025446594
000350 fc bd 2e bd cc 84 c0 bd 44 7f bb bd 1c eb 98 bd
       -0.042661652 -0.09400329 -0.09155133 -0.074667186
000360 c8 6b 1a 3d 46 4f 8a 3d 46 fa df 3d 9c f3 21 bd
       0.037700444 0.067534015 0.10936408 -0.039538965
000370 60 8d 21 bc 98 0b 18 bd 00 78 ef b9 4c 5a 24 3d
       -0.009860367 -0.03712043 -0.0004567504 0.040125176
000380 80 fd 33 bb a0 9f bd 3b 48 ba 81 3c 9c ad 3e 3d
       -0.002746433 0.005786851 0.015835896 0.046552286
000390 6c 57 1b bd f6 a6 98 bd 38 96 f1 3c a0 7e 72 bc
       -0.03792517 -0.0745372 0.029490575 -0.014800698
0003a0 48 f3 67 bd 64 05 57 3d 80 96 94 3a b0 f4 94 bc
       -0.056628495 0.052495375 0.0011336356 -0.018183082
0003b0 d4 d9 77 bd 38 b9 86 bc e8 ae d9 bd 38 f3 e8 3c
       -0.06051047 -0.016445741 -0.10629064 0.028436288
0003c0 80 de f5 3a a2 59 9b 3d 80 3d 04 3c 00 be 23 3c
       0.0018758327 0.075854555 0.008071303 0.00999403
0003d0 b8 79 0b 3d ce cc c2 3d 14 f3 71 bd 54 d5 98 3d
       0.034051627 0.0951172 -0.059069708 0.07462564
0003e0 58 6e fa 3c 2a c8 aa bd 8c 45 32 3d 22 88 99 bd
       0.030570194 -0.083389595 0.043523356 -0.074966684
0003f0 f4 2a 21 bd f0 0d 74 bd 12 29 ae bd 48 9e c9 3d
       -0.039347604 -0.059583604 -0.08503927 0.09844643

net.2.bias f4 [64]
000000 6c dd ef bd c8 27 a5 bc 00 40 9e b9 54 28 a7 bd
       -0.11712155 -0.02016057 -0.00030183792 -0.08161989
000010 b0 75 8d 3d 70 df 06 3c 72 94 81 bd a8 a7 f7 bd
       0.06907213 0.008231983 -0.06327142 -0.12092525
000020 aa 59 c7 3d 74 e8 fd 3d 30 28 3e 3c 64 36 75 bd
       0.09733899 0.123978525 0.011606261 -0.059866324
000030 84 c1 a2 3d 38 df 96 3d c0 f0 92 bc 38 11 f0 3d
       0.079470664 0.07366794 -0.017937064 0.11722034
000040 3e 2b bd bd f0 b1 6a bc 36 f3 d8 3d 68 66 9e bd
       -0.092367634 -0.01432465 0.10593264 -0.07734376
000050 c8 ee 1d bd 14 ae 59 bd a8 98 51 bd 56 7f e1 3d
       -0.038557798 -0.05314453 -0.051170975 0.110106155
000060 b2 c9 9d 3d fa bb e8 bd 4e 93 9c bd 80 cc d5 ba
       0.07704486 -0.11363979 -0.07645284 -0.0016311556
000070 e0 79 26 bd 14 fb 8c bd f8 a2 fb bd 6e ce bc 3d
       -0.040643573 -0.06883827 -0.12286943 0.09219061
000080 be 54 8f 3d 4c 8f 14 3d 78 72 e6 bc 6c 25 f8 bd
       0.06998585 0.03626947 -0.028130755 -0.12116513
000090 20 37 00 bc 7c bc 43 3d 94 97 14 bd 2a 82 c9 3d
       -0.007825643 0.047787175 -0.03627737 0.0983928
0000a0 40 07 ea 3c 00 3e cb bb e8 58 4a 3d b2 68 85 3d
       0.02856791 -0.0062024593 0.049401194 0.0651411
0000b0 2a c4 bb bd 18 b3 1b 3d 2e ad e8 bd 40 92 d6 bc
       -0.09168275 0.038012594 -0.113611564 -0.026192784
0000c0 9c ff 25 bd 30 78 c3 3d ee 94 f6 bd e8 e7 35 3d
       -0.04052697 0.09544408 -0.12040125 0.044410616
0000d0 a8 45 e9 bd 48 f5 5d 3d 50 c8 fa 3c d0 78 49 bd
       -0.11390239 0.054188997 0.030613095 -0.04918748
0000e0 d0 3a 17 3d 8e b3 f5 3d ce da 9b 3d 7a 97 e9 bd
       0.036921322 0.11997138 0.07610093 -0.11405845
0000f0 48 b0 04 bd bc 36 e8 3d d8 6c 9e 3c a0 7c 7c 3c
       -0.032394677 0.11338565 0.01933901 0.015410572

net.4.weight f4 [20, 64]
000000 a0 1e 12 3c 00 03 34 bd 40 ef 05 bd e0 ea 07 3c
       0.008918434 -0.043948174 -0.03269887 0.008295745
000010 66 b4 c0 3d 6c 4e 10 bd a4 fc 05 bd a8 ed c2 3c
       0.09409408 -0.03523104 -0.03271164 0.023794964
000020 14 65 3b bd 70 4c df 3d 5c 94 c0 3d c0 13 ac 3b
       -0.045750692 0.10903251 0.09403297 0.005251378
000030 30 8c a5 bd b4 4a 0f 3d e2 19 d9 3d 64 ac 28 3d
       -0.08083379 0.03498335 0.1060064 0.04118003
000040 c0 9b 56 3d 1e 81 87 bd f8 2f fc bd b4 86 40 bd
       0.05239463 -0.06616424 -0.12313837 -0.047003463
000050 60 e6 82 3b d0 72 e3 3d 50 ce d5 3c 48 b8 bb bc
       0.003994748 0.11105883 0.026099354 -0.02291502
000060 2c a7 00 bd 00 cb c3 bc 9e a8 89 bd 6c 59 56 bd
       -0.031409428 -0.023900509 -0.06721614 -0.052331373
000070 d0 3c be 3c c2 5d ad 3d 1c 70 d9 3d 7c 2b 45 3d
       0.023222357 0.084651485 0.10617086 0.048137173
000080 88 e3 b0 bd f2 a8 ec 3d 28 32 f7 3d 4c 27 18 bd
       -0.08637148 0.11555661 0.120701134 -0.03714685
000090 80 38 8d 3b 0a bb e7 3d 6c 0b 34 bd f4 b8 72 3d
       0.004309714 0.11314972 -0.043956205 0.059258416
0000a0 a8 52 aa 3c 7a b3 8e 3d 44 63 32 3d 9a fc fd 3d
       0.020791367 0.06967826 0.0435517 0.124016955
0000b0 92 f5 d8 3d a6 ad ae bd 18 0f 9a 3d 10 99 ca bc
       0.10593714 -0.085292146 0.0752241 -0.024731189
0000c0 46 f2 85 bd 10 c0 ab 3c 18 61 8b bc f6 d3 a6 bd
       -0.065403506 0.020965606 -0.017014071 -0.08145897
0000d0 48 f7 e1 bd f2 ab 8e bd b0 da 52 3c d8 03 9c 3d
       -0.11033493 -0.0696639 0.012869522 0.07617921
0000e0 d4 d9 96 3d ac 89 08 3d 40 d9 f2 3d 60 42 db bd
       0.07365766 0.03333442 0.118578434 -0.107060194
0000f0 22 22 a1 bd 28 65 5c 3d 68 2d e9 bd 62 70 f1 3d
       -0.078678384 0.053807408 -0.11385614 0.117890134
000100 50 30 8d 3c 88 b2 3c bd 36 6d e4 3d ac b7 6e 3d
       0.017234951 -0.0460687 0.11153643 0.058280632
000110 8a 4c d7 3d 50 dd c0 3d 88 37 b2 bc 86 64 e8 3d
       0.105126455 0.09417212 -0.021754995 0.11347298
000120 10 3b 87 3c b0 4f 46 3c bc e8 31 3d 92 6a c8 bd
       0.016507655 0.01210396 0.043434843 -0.09785952
000130 82 11 99 bd 74 3d f2 3d 4e 87 a7 bd 7a 53 8a 3d
       -0.074740425 0.118281275 -0.08180104 0.06754203
000140 f0 b7 9a 3d 6a d5 cf bd 60 b7 6a bc 00 4e af ba
       0.075546145 -0.101481274 -0.014325947 -0.0013374686
000150 b0 ec bd 3d bc 1b 0c bd 24 38 e7 3d 54 d0 d6 bd
       0.0927366 -0.034206137 0.11290005 -0.10488954
000160 d8 e4 55 3d ca c6 8b 3d 2c 72 38 bd bc 60 28 bd
       0.052220196 0.068250254 -0.045030758 -0.041107878
000170 ce 0e a3 bd 14 d6 07 3d 0c 94 2b 3d 54 f6 33 bd
       -0.07961808 0.033163145 0.041889235 -0.04393609
000180 e4 06 cf 3d 20 e7 9c bc 30 8e 9f bc f8 f0 c7 3d
       0.10108736 -0.019153178 -0.01947698 0.09762758
000190 08 6b b3 3c 20 0a 89 3d d4 e4 96 3d ac 91 a7 bd
       0.021901622 0.06691384 0.07367864 -0.081820816
0001a0 00 86 cf ba 9e 16 e2 3d 7e 4c 9e bd 08 1d 86 3c
       -0.0015832782 0.1103947 -0.077294335 0.016371265
0001b0 ec 29 be 3d 70 20 62 3c a0 9b e5 bc a4 25 39 3d
       0.0928534 0.013801679 -0.02802831 0.045201913
0001c0 f2 bf d3 bd ba 53 d2 3d be 1a c9 3d 74 60 0f bd
       -0.10339345 0.10269876 0.09819554 -0.035004094
0001d0 48 38 39 bd 18 4d c8 bc 80 b6 fe 3d 58 89 44 bd
       -0.04521969 -0.024450824 0.12437153 -0.047982544
0001e0 98 50 19 3d 60 0b f3 bd e8 c2 1a 3d a6 1c 9b 3d
       0.037430376 -0.11867404 0.037783533 0.07573824
0001f0 5c b9 25 3d e0 a1 c2 bb 50 75 15 3c b8 b0 dd 3d
       0.040459976 -0.005939707 0.009122208 0.10824722
000200 54 81 5e 3d a8 9e ec bc f0 9e cd bd 48 93 ba 3d
       0.054322556 -0.028884247 -0.100400805 0.09110123
000210 dc 9e 3e bd 46 9c 9f 3d e0 cc cd bc c0 f6 07 3b
       -0.04653822 0.07793479 -0.025122106 0.002074644
000220 02 e4 c9 bd 94 0d 43 bd 90 fa 28 3c 04 66 f7 bd
       -0.09857942 -0.04762037 0.010313645 -0.12080005
000230 b0 ba d2 bc a8 bf 94 3d ae ed b3 3d 52 91 bc 3d
       -0.025723785 0.07263118 0.08785568 0.09207405
000240 14 24 1c bd 70 36 21 3c 7e 6d cd bd 6c 9c 84 3d
       -0.038120344 0.009839639 -0.100306496 0.064751476
000250 38 4e b5 3c 5e 47 d6 3d 30 4d 9f bc 2a d6 f4 3d
       0.022132024 0.10462831 -0.019445986 0.11954911
000260 90 a9 7d 3d 34 79 da 3d 80 48 05 bc 48 dd c8 bd
       0.061929286 0.10667649 -0.008134961 -0.09807831
000270 7c c4 c8 bd 2a 61 f1 bd 60 34 aa 3c a8 f6 c5 bd
       -0.098031014 -0.11786111 0.020776927 -0.096661866
000280 dc 3f 27 bd c6 15 82 3d 10 ba e8 3d 2c 69 00 bd
       -0.040832385 0.06351809 0.113636136 -0.0313503
000290 ee 3d b1 3d a0 30 1b bc 30 eb cc bc f0 5d 72 bc
       0.0865439 -0.009472042 -0.02501449 -0.014792904
0002a0 38 28 68 bd 00 22 0c 3d 00 61 31 ba a0 76 79 bd
       -0.05667898 0.034212112 -0.0006766468 -0.060904145
0002b0 b8 d4 a2 3d e8 ba 64 bd 20 62 ad bd 08 bd 31 3d
       0.07950729 -0.05584231 -0.084659815 0.043393165
0002c0 a0 85 fb bb da ec 8c bd 18 fb d0 bd 8c 66 19 bd
       -0.0076758415 -0.06881113 -0.10204142 -0.037451312
0002d0 bc 02 c4 bd c4 3c 8b 3d 00 19 7f bc cc da 83 3d
       -0.09570834 0.067986995 -0.015569925 0.064382166
0002e0 68 39 79 3d 90 f5 24 3c 98 a9 9d bc e0 07 84 bd
       0.060845762 0.010068312 -0.019245908 -0.064468145
0002f0 88 88 e6 3c a8 9a de bd 34 7e 79 bd b8 26 cc 3d
       0.028141275 -0.10869342 -0.060911372 0.099683225
000300 68 c1 c6 bc 68 85 ce 3d b4 98 97 3d 78 dd d7 bc
       -0.024262145 0.10084039 0.07402173 -0.026350722
000310 7a 0d ce bd 80 97 cd 3d 10 87 2c 3c 00 ee f1 3d
       -0.10061164 0.10038662 0.010530248 0.11812973
000320 8e 87 e7 bd c8 04 d3 3c 28 91 dc bd d0 a6 78 bc
       -0.11305152 0.025759116 -0.10769874 -0.01517649
000330 1a 63 e0 bd 54 01 e9 bd 20 a1 ce 3b 74 62 fc 3d
       -0.10956402 -0.113772064 0.0063058287 0.12323466
000340 a0 ec 1c 3c 80 bd 3d bc d0 a0 ee 3d 40 78 3b 3c
       0.0095779 -0.011580825 0.11651766 0.011442244
000350 0e f1 8e bd 80 c9 a2 3d 20 ab b6 3d 2a fa dd 3d
       -0.06979571 0.07948589 0.08919358 0.10838731
000360 c2 52 c9 3d ee f7 ed 3d 50 e4 3d bd 40 3d 93 3c
       0.09830238 0.116195545 -0.046360314 0.017973542
000370 90 d4 3a bd e8 4d 88 bc 88 65 ca 3d 02 46 ca bd
       -0.04561287 -0.016638711 0.09882647 -0.09876634
000380 14 e5 8b 3d 92 e9 93 bd 00 b2 33 3a c0 d6 73 bc
       0.068308026 -0.072222844 0.0006854832 -0.014882743
000390 78 9e 66 bd b0 a4 2e 3c ce ad 81 bd e4 de e7 3d
       -0.05630347 0.010659382 -0.06331979 0.1132181
0003a0 b8 59 39 bd d8 08 a2 3d 28 ea f3 bc 74 8e c9 bd
       -0.045251578 0.07911843 -0.02977474 -0.09841624
0003b0 5c ba c6 3d 28 60 0d bd e8 1a 54 bd 90 89 19 3c
       0.09703514 -0.03451553 -0.051783472 0.009371176
0003c0 80 ec a6 ba 10 7a 10 3d 60 73 f8 bc cc b8 13 bd
       -0.0012735277 0.035272658 -0.030328453 -0.036064908
0003d0 06 11 8c 3d 58 ac 6a 3d d2 46 e2 3d 30 05 62 3c
       0.068391845 0.057293266 0.11048664 0.013795182
0003e0 c8 e9 04 bd 78 28 da bc 68 ac d0 bc 50 ce 21 bd
       -0.032449514 -0.026630625 -0.025472835 -0.039503396
0003f0 90 bc 2e bd e4 41 10 bd a0 68 1a 3d bc 95 4a 3d
       -0.042660296 -0.03521909 0.037697434 0.049459204

net.4.bias f4 [20]
000000 18 25 11 bd dc b7 0a 3d 64 04 67 bd 40 20 d0 bb
       -0.035435766 0.03386675 -0.05640067 -0.0063515007
000010 70 7e 15 3d 18 c7 64 3d 32 9f f7 bd 30 41 46 3d
       0.036497533 0.055853933 -0.12090911 0.04840201
000020 6c 3c 46 bd de 50 b4 bd fc 0b 5a bd 40 be 30 bb
       -0.048397467 -0.08804487 -0.053234085 -0.0026968867
000030 28 25 7c 3d 40 00 e4 bd d4 12 0b 3d f8 a6 e6 3d
       0.061558872 -0.1113286 0.033953503 0.112623155
000040 02 a2 90 bd 28 b1 f4 3c 44 d5 4d bd d0 c0 fb 3c
       -0.070621505 0.029869631 -0.050252214 0.030731589

gru.weight_ih f4 [48, 40]
000000 4c b4 dd 3d ea b2 1d be 50 09 75 3d 78 07 7d 3e
       0.108254045 -0.15400282 0.059823334 0.2470988
000010 e0 b1 8f 3c 4c b7 35 be 80 ef 4c 3b e0 d1 61 3d
       0.017540872 -0.17745703 0.0031270683 0.055131793
000020 24 a7 9d 3d e0 a3 93 bc a0 74 5b bd 98 92 fe bd
       0.07697895 -0.018022478 -0.05357802 -0.12430304
000030 44 6d 25 3e 44 9d 10 be c8 45 ae bd 1e db 29 3e
       0.16154963 -0.14122492 -0.085094035 0.16587493
000040 10 9c f0 bd a0 a7 05 bd 40 22 cc bd bc e9 62 be
       -0.117485166 -0.032630563 -0.0996747 -0.22159475
000050 cc cf f6 3d d8 58 e3 bd 18 45 ec bd 60 a3 61 bd
       0.12051353 -0.1110093 -0.11536616 -0.055087447
000060 c8 47 8c 3d 6a c7 60 3e 94 6f 62 3e 80 ce 5f 3b
       0.06849629 0.2195107 0.22112876 0.0034150183
000070 04 90 5b be b0 1f 97 3c c0 4b bd 3b e8 33 58 3e
       -0.21441656 0.018447727 0.0057768524 0.2111355
000080 f0 a6 53 bd 56 8b 70 be 94 02 ba 3d 10 93 60 bd
       -0.051672876 -0.23490652 0.09082523 -0.05482775
000090 34 a7 b2 3d 5c 0e 9a 3d c4 81 b6 3d 60 9b 0d 3e
       0.08723298 0.0752227 0.089114696 0.13828802
0000a0 42 78 33 be 3a 85 50 be 3e af 6f 3e 6c fd 69 3e
       -0.17526343 -0.20363322 0.23406693 0.22850579
0000b0 c8 1c ca bd fe 1d 75 3e 50 27 4a 3d 1c 89 86 bd
       -0.09868771 0.23937222 0.049353898 -0.0656912
0000c0 3c a5 0a be fc 3b 08 be 9e 69 4d 3e 78 5a 1d be
       -0.13539594 -0.13304132 0.20059821 -0.15366542
0000d0 b0 02 d2 bd f8 d8 7e 3e dc 1d fa bd a4 e2 7b 3e
       -0.10254419 0.24887455 -0.122127265 0.24598175
0000e0 60 a8 e4 3d 0c 01 fe 3d e0 31 69 3d 20 4f 37 bd
       0.111649275 0.124025434 0.05693233 -0.044753194
0000f0 f8 45 e4 3d 48 80 98 3d ac aa 0b be 7e e4 52 be
       0.11146158 0.07446343 -0.13639325 -0.20594975
000100 6e 0f 50 be 40 dc f7 bc a8 6e 92 3d d0 42 22 be
       -0.20318386 -0.03025639 0.07150012 -0.158458
000110 98 a8 3c 3d 5e 78 13 3e a4 91 16 3e a8 52 bf bd
       0.04605922 0.14401385 0.14703995 -0.09341937
000120 b8 bc 6a 3d ec fa 62 be da 2c 38 3e 3e 98 4c be
       0.057308882 -0.22166032 0.1798586 -0.19979951
000130 c0 56 63 3c 94 d7 a0 bd 78 42 54 be 84 e6 5d be
       0.013875663 -0.07853618 -0.20728481 -0.21669966
000140 8c 75 24 be f8 d8 39 be 64 5c 43 3e 60 4b 1d bd
       -0.16060466 -0.18149173 0.19078213 -0.03840196
000150 ea e9 2a be 00 62 6c 3a f4 21 e7 bd 58 48 14 bd
       -0.16690794 0.00090172887 -0.11285773 -0.036201805
000160 e0 28 5c 3e ae ee 61 be 5a 64 5e be 28 f5 7a 3d
       0.21499968 -0.22063705 -0.21717969 0.061268955
000170 30 6f 32 3e e6 37 73 be 28 db a0 3d 3e a2 7d 3e
       0.17425227 -0.23751792 0.07854301 0.24768922
000180 b0 83 24 bd 88 0e 17 be 44 2e fb 3d 34 99 10 3e
       -0.04016465 -0.14751637 0.12264684 0.14120942
000190 a0 9c d4 bc 96 ca 50 be 20 da 1e 3c 12 c9 25 be
       -0.02595359 -0.2038978 0.00969556 -0.16189983
0001a0 54 8c 5a be 94 c8 1f 3e 28 d2 2f 3e ac 8e cd 3d
       -0.21342593 0.15603858 0.17170012 0.10036978
0001b0 f8 e2 50 be ac 1a 59 3e 50 8b 3b 3e 74 04 5c 3e
       -0.20399082 0.21201581 0.18314862 0.21486074
0001c0 20 20 88 bc 40 a5 3d bd 30 98 65 be 6a e9 3c 3e
       -0.01661688 -0.046300173 -0.22421336 0.18448415
0001d0 e0 c6 56 bc d6 f8 7f be a4 4e 7a 3e 00 66 04 bd
       -0.013108939 -0.24997267 0.24444062 -0.032323837
0001e0 7e f8 19 3e d0 25 17 bd e8 17 21 bd 80 31 61 3e
       0.15036198 -0.036901295 -0.03932944 0.21991539
0001f0 1c 8d 54 3e 64 f6 ee bd c0 f2 ff 3b 2a e3 2d 3e
       0.20756954 -0.11668089 0.0078109205 0.16981187
000200 a0 da 44 3c 78 88 38 bd 5c b7 64 3e a0 f5 63 3e
       0.012015015 -0.04505202 0.22335571 0.22261667
000210 90 3e 89 bd 5a d3 41 3e 30 d7 ca bc 40 6c f3 3b
       -0.06701386 0.1892828 -0.024760813 0.007428676
000220 26 5b 4d 3e f0 e4 9e bc 10 b9 cb bc 00 83 5e bd
       0.20054302 -0.019396275 -0.024868518 -0.05432415
000230 14 bd 55 be 74 38 46 3e ac d7 48 be 64 7e 44 be
       -0.20872909 0.19357473 -0.19613522 -0.19188839
000240 58 98 0a 3d 90 ad d7 bc a0 8e 20 3c 30 21 a1 3c
       0.033836693 -0.026327878 0.009799629 0.019669145
000250 ba b9 7d 3e b6 8e 78 be fc ea 19 be d8 e4 3c 3d
       0.2477788 -0.2427319 -0.15031046 0.04611668
000260 92 e6 63 be 4e 3f 4a be ba 28 44 3e 30 40 c6 3d
       -0.22255924 -0.19750711 0.19156161 0.096802115
000270 d0 d0 9e bd 04 1d 87 3d 20 19 33 3d 00 c5 c9 bc
       -0.077546716 0.06597331 0.043725133 -0.02463007
000280 ca 95 54 3e 00 f0 8b b8 46 9e 35 3e 96 44 47 be
       0.20760265 -6.67274e-05 0.17736158 -0.19459757
000290 9c 07 d0 bd 50 32 2d 3d 8e bf 08 3e 54 52 d0 bd
       -0.101577014 0.04228431 0.13354322 -0.10171953
0002a0 4e af 38 3e ac 61 54 be ac 4d c3 bd 26 75 40 3e
       0.18035623 -0.20740384 -0.09536299 0.18794689
0002b0 f2 47 3f be c8 17 70 be 64 3b 81 bd 4e 48 55 be
       -0.18679789 -0.23446572 -0.06310156 -0.20828363
0002c0 74 4e 98 3d 80 09 34 bd 04 b6 96 bd a6 92 0d 3e
       0.07436839 -0.043954372 -0.073589355 0.13825473
0002d0 60 4e 6e 3c 94 cc 66 be e2 96 72 be 5a c7 20 3e
       0.014545053 -0.22538978 -0.2369037 0.15701047
0002e0 f4 cc dc 3d d4 ad 0c 3e f4 6b 59 be 88 e1 45 bd
       0.10781279 0.13738185 -0.21232587 -0.048310786
0002f0 58 b8 5a 3e 74 c7 4e 3e dc 09 2e 3e 6e a7 6d 3e
       0.21359384 0.20193273 0.16995949 0.232084
000300 44 71 a0 bd cc 2e 46 be 68 e9 0f 3e ac 39 23 3e
       -0.07834104 -0.19353789 0.14053881 0.15939969
000310 a4 9e 9a bd 10 30 bf bc 40 40 45 bc 70 17 63 be
       -0.075497895 -0.023338348 -0.012039244 -0.2217691
000320 78 11 d4 bd 38 3d a2 bd 4c 23 bf 3d 70 63 95 bd
       -0.103548944 -0.07921833 0.09332904 -0.07294357
000330 a4 13 e7 3d a0 83 66 3e 90 48 5a bd 10 99 79 bd
       0.11283043 0.22511148 -0.053291857 -0.060936987
000340 14 cb 20 be 80 4c 9c bc f2 45 6a be 9c 09 2d 3e
       -0.15702468 -0.019079447 -0.22878245 0.16898197
000350 bc d4 5c 3e d0 8d 88 3d ba 1d 72 3e da f2 00 3e
       0.21565527 0.066676736 0.23644152 0.1259264
000360 26 b2 29 3e f6 72 6c 3e 34 02 30 be c0 ac a0 bc
       0.16571864 0.23090729 -0.1718834 -0.019613624
000370 d8 59 c0 3d d4 0b 89 bd a0 98 35 be c0 c3 a0 bd
       0.09392136 -0.06691709 -0.17734003 -0.07849836
000380 04 cf fd bd 5c 93 b3 bd 46 05 43 be 90 71 9a bd
       -0.12393001 -0.08768341 -0.1904498 -0.075411916
000390 24 af 12 3e 4c b8 e0 bd 28 18 da 3d 3e 87 52 be
       0.14324623 -0.10972652 0.10649139 -0.20559403
0003a0 9e 50 21 be 60 44 d4 3c d6 12 6d 3e 8e 6b 6c be
       -0.1575341 0.02591151 0.23151717 -0.23087904
0003b0 84 dc de 3d d0 17 33 3d da 2d 51 be 9e df 39 be
       0.10881904 0.04372388 -0.20427647 -0.1815171
0003c0 ca fa 00 3e a4 d4 ff bd 12 67 33 3e c2 08 31 be
       0.12595668 -0.1249173 0.17519787 -0.17288497
0003d0 66 64 41 3e e4 99 02 be 90 67 cf 3d 4c 31 99 3d
       0.18885955 -0.12754017 0.10127175 0.07480106
0003e0 fc e0 48 be b8 41 06 be 18 0c 78 bd 00 f0 4f 3a
       -0.19617075 -0.13111007 -0.06055841 0.0007932186
0003f0 9c dc fc 3d e4 76 d2 bd 38 a9 16 3d 2a de 0a be
       0.123467654 -0.10276583 0.036782473 -0.13561311

gru.weight_hh f4 [48, 16]
000000 80 14 2b 3b 40 c3 a8 3c be 43 7b 3e 18 49 ab bd
       0.0026104748 0.020600915 0.2453756 -0.08363551
000010 6e 75 64 be 0c 26 7c be 98 bc 84 3d e4 8d c7 3d
       -0.22310421 -0.24623889 0.06481284 0.0974386
000020 00 87 67 3b 74 c0 54 be c8 f8 47 be 0c 6f 2e be
       0.003532827 -0.2077654 -0.19528496 -0.17034549
000030 dc ce 24 3e 10 ac 48 3d 5c 95 0e be ee 19 72 be
       0.16094536 0.048992217 -0.13924164 -0.23642704
000040 b6 12 13 3e 00 0e 30 3b 9c 77 7e 3e bc bf 51 be
       0.14362606 0.0026863813 0.24850315 -0.20483297
000050 f6 a3 4f be 58 ac 30 3d dc 94 2b 3e 4a 1a 29 3e
       -0.2027739 0.04313311 0.16756004 0.16513935
000060 98 84 7e 3e b8 fa 22 3e 48 b2 e4 3d 7c 67 1d be
       0.24855268 0.15915954 0.11166817 -0.15371507
000070 0e 47 7c 3e e4 97 e2 bd ec 9f 24 3e e4 a1 d2 3d
       0.2463648 -0.11064127 0.1607663 0.102847844
000080 5a bd 17 be 20 f5 b6 bc d0 87 aa bc 64 4d 41 3e
       -0.14818326 -0.022333682 -0.020816714 0.18877178
000090 a8 e4 43 3e 10 8e 5b 3d a8 7b 11 be 1c d2 91 3d
       0.19130194 0.05360228 -0.14207327 0.07120153
0000a0 ac be 51 3e e2 a7 07 be 98 2a 4d 3e 10 66 67 3d
       0.20482892 -0.13247636 0.2003578 0.05649382
0000b0 de 9b 0d 3e 20 a0 af 3d 76 9e 21 3e 66 cd 59 be
       0.1382899 0.08575463 0.15783104 -0.2126976
0000c0 30 75 d3 3d 18 00 5e be 80 c0 8b bc 8c 32 48 3e
       0.10325086 -0.21679723 -0.017059565 0.19550532
0000d0 e4 ef 51 be 74 b9 42 be 6c 66 e0 bd 20 1c 1a 3c
       -0.20501667 -0.19016057 -0.109570354 0.00940612
0000e0 c0 92 0d bd d6 f1 48 be b8 6c 05 3d 40 9e 80 bd
       -0.03456378 -0.19623503 0.032574385 -0.06280184
0000f0 70 20 ef bd 80 d5 32 3b 00 e0 ad 3d 48 48 24 3d
       -0.11676109 0.00272879 0.0848999 0.040107995
000100 2c b4 29 be 9e 89 2d 3e 68 33 41 3d e4 a4 d1 bd
       -0.16572636 0.16947028 0.047168165 -0.102365285
000110 6e 97 5d 3e 80 6b 4e 3d b0 1f 05 3e 62 02 35 3e
       0.21639797 0.05039549 0.13000369 0.1767669
000120 40 fd 91 bb b0 fa 52 3e 00 30 92 ba 76 cd 4c 3e
       -0.0044552386 0.20603442 -0.0011153221 0.20000252
000130 90 69 f8 3c b4 97 eb 3d de ea 00 3e 66 e1 0d be
       0.030323774 0.115035444 0.12589595 -0.13855514
000140 50 b7 5f 3e c0 68 f8 3b e0 2d bc 3d d4 e1 3c be
       0.21847272 0.0075808465 0.091884375 -0.18445522
000150 58 1d bf bd 0a e1 26 3e 24 90 21 be 20 de 0d 3d
       -0.09331769 0.16296783 -0.15777642 0.034635663
000160 54 cb 60 3e d0 27 73 be 80 f7 34 bb e8 65 26 3d
       0.21952564 -0.23745656 -0.0027613342 0.04062453
000170 18 c9 27 3e 58 07 ac bd 66 31 7a be ca 71 1e be
       0.16385305 -0.08399838 -0.24432907 -0.15473095
000180 44 aa 99 3d 8c 85 3c be 8a 24 5b be 80 b0 ce bb
       0.07503179 -0.18410319 -0.21400657 -0.0063076615
000190 e0 56 86 3d 4a 87 20 be 38 dd c6 bd 6e 08 0c 3e
       0.06559539 -0.15676609 -0.09710163 0.1367509
0001a0 cc 16 2d be c2 92 52 be 48 be 9a bd 10 b1 4d 3e
       -0.16903228 -0.20563796 -0.075558245 0.20087075
0001b0 64 1c 96 bd 42 88 2d be 5a 9c 35 be 28 a9 70 bd
       -0.07329634 -0.1694651 -0.17735425 -0.05875507
0001c0 c0 d3 35 3e 0c 71 c0 3d 4c f3 aa bd 10 16 5e be
       0.17756557 0.09396562 -0.083471864 -0.21688104
0001d0 3e 58 1b be 78 3f 58 3d 84 42 57 3e 32 d7 03 3e
       -0.1517038 0.052794904 0.21021467 0.12875059
0001e0 c8 e3 02 bd 0a cc 07 3e f0 7c 93 3c b8 b8 0c 3d
       -0.03195551 0.13261428 0.01800391 0.03435585
0001f0 bc b6 ee 3d d0 10 7c bd 74 29 95 3d c0 9a b6 3c
       0.116559476 -0.06153947 0.07283297 0.022290587
000200 30 34 9c 3d e0 09 5b bd 30 7c 25 3e da 9e 66 be
       0.076271415 -0.053476214 0.16160655 -0.22521535
000210 ea 08 2a 3e 5e 39 53 be 24 3d 2c be 5e 69 1d be
       0.16604963 -0.20627353 -0.16820198 -0.15372226
000220 f0 bb c5 bc 70 03 cb bc 14 f0 78 be 58 d6 07 3e
       -0.024137467 -0.024781913 -0.24310333 0.1326536
000230 88 eb 7b 3d 5c 21 7a 3e 84 b1 36 be 6a db 4d be
       0.061503917 0.24426788 -0.17841154 -0.20103231
000240 70 0f 76 3d 98 37 45 3e e2 e8 2a 3e b8 b1 cf 3d
       0.060073316 0.19259489 0.166904 0.10141319
000250 c0 37 2c 3d d8 36 ff 3d d8 c4 cb bd dc 56 7f be
       0.042045355 0.124616325 -0.09949654 -0.24935478
000260 bc 1f 55 be 34 b8 23 be a0 a9 64 3d 32 34 65 3e
       -0.20812887 -0.15988237 0.05582583 0.22383192
000270 da 35 25 3e e6 17 27 be d4 c5 8e 3d 58 74 62 3e
       0.16133824 -0.1631771 0.069713265 0.22114694
000280 c0 6a c9 3b 48 c9 3e bd 30 ae 0a be 00 d4 94 bc
       0.006146759 -0.046578676 -0.1354301 -0.018167496
000290 64 a4 40 3e 58 91 90 bd 50 a4 1a bd 54 6b f8 3d
       0.1881271 -0.07058972 -0.037754357 0.12129846
0002a0 a8 45 c4 bd 24 89 ec bd a8 ef 2c 3d 24 5a 39 3e
       -0.095835984 -0.11549595 0.04222074 0.18100792
0002b0 10 75 da 3c a0 f6 24 bc 94 5c 4b be b6 dd 18 3e
       0.026667148 -0.010068566 -0.19859535 0.14928326
0002c0 60 eb 3a 3c 14 61 e1 bd 8c 3a 61 be 80 eb f2 bd
       0.011408657 -0.11004844 -0.2199499 -0.11861324
0002d0 dc e8 33 be d8 b0 51 3d f4 96 3b 3e 68 6a 4a bd
       -0.17569298 0.051194042 0.18319303 -0.049417883
0002e0 f8 d1 1b 3e 18 9c 59 bd 40 ad f3 bd b8 47 6a be
       0.15216815 -0.05312738 -0.11898279 -0.22878921
0002f0 ce 8c 2b be c4 2c 40 3e c2 6c 2c 3e fc 00 77 3e
       -0.16752931 0.18767077 0.16838363 0.2412147
000300 e0 a1 ce bc 9c 12 ad 3d 10 5b fb bc 4a 62 7d 3e
       -0.025223672 0.08450815 -0.03068307 0.24744526
000310 68 21 4c be 0c 06 8b bd 54 75 75 be b0 3f ca 3c
       -0.19934618 -0.06788263 -0.23970538 0.024688572
000320 96 4d 47 be d6 8a 33 be 78 d0 6c 3d 36 b4 7e 3e
       -0.1946319 -0.1753343 0.057816 0.24873433
000330 de 5f 55 3e 44 e3 2f 3e 28 72 7d bd 00 55 f7 bb
       0.20837352 0.17176539 -0.061876446 -0.0075479746
000340 a6 23 66 be 8e 16 2c 3e ac e3 8b 3d 6c 4b 59 3e
       -0.22474536 0.16805479 0.06830534 0.21220177
000350 14 e0 78 be 58 b9 79 bd 58 df 24 be ce e9 43 be
       -0.24304229 -0.060967773 -0.16100824 -0.19132158
000360 32 32 18 be 50 c1 a1 3d 30 2f 2a 3e a0 37 e7 3d
       -0.14862898 0.078981996 0.16619563 0.112899065
000370 00 5f af bd 14 da e1 3d 2c 25 7c 3e 40 4e 48 3c
       -0.08563042 0.11027923 0.24623555 0.0122256875
000380 04 3f b8 bd 54 25 4a be 54 f7 34 3e b0 04 6a bd
       -0.08996394 -0.19740802 0.17672473 -0.057133377
000390 d4 d8 48 be be 0a 14 3e e8 24 4c 3d d0 a6 ce bd
       -0.19613963 0.14457223 0.049839884 -0.10090411
0003a0 2c fc 7b be 88 74 00 3d a8 a2 97 bd 90 91 31 bd
       -0.24607915 0.031361133 -0.07404071 -0.04335171
0003b0 80 cc aa bd 28 8f 52 3e 70 e2 07 3e cc f4 4a 3e
       -0.083397865 0.20562422 0.13269973 0.19819945
0003c0 58 4e c1 3d 68 1d 92 3d 58 a6 7c 3e 00 aa 68 ba
       0.09438771 0.07134515 0.2467283 -0.00088754296
0003d0 a2 2b 13 3e 5c 31 d0 3d 1c 01 75 be 5c ea 2d 3e
       0.14372113 0.101656646 -0.23926204 0.16983932
0003e0 90 d5 c8 bc 9c dc 2c be 52 85 2c 3e f4 56 4f be
       -0.024515897 -0.16881031 0.16847733 -0.20248014
0003f0 c4 10 f0 3d a2 94 52 be b4 da 92 bd 4c 2d 70 be
       0.11721948 -0.20564511 -0.071706206 -0.2345478

gru.bias_ih f4 [48]
000000 48 5b 5d 3d a4 b8 e7 bd 6e 48 72 3e e0 f4 53 3e
       0.05404213 -0.11314514 0.23660442 0.20698881
000010 d0 1f c9 bd 6e 5b 0e 3e 78 5f 2e bd 6a 15 07 3e
       -0.09820521 0.13902065 -0.042571515 0.13191763
000020 d0 d0 90 bd 20 cf 15 be 90 03 d8 3d a8 82 fd 3d
       -0.07071078 -0.14629793 0.105475545 0.12378436
000030 4c 82 66 3e f0 42 a2 3d 5c 79 e4 bd 40 cf 82 3d
       0.22510642 0.079229236 -0.1115596 0.06387186
000040 c0 89 76 3c 22 b5 5e 3e 58 0e d2 3d 6a 59 5a 3e
       0.015047491 0.21748784 0.10256642 0.21323171
000050 20 1f 98 3c c6 11 42 be 0e ea 23 be c2 26 67 3e
       0.018569529 -0.18952093 -0.16007254 0.22573379
000060 72 46 65 3e 0c 3b 9a 3d 7c b1 36 be 8c 10 3b 3e
       0.22390154 0.075307935 -0.17841142 0.18268031
000070 dc 63 d4 3d de fe 49 be a4 d9 94 3d 0c be 76 3e
       0.10370609 -0.1972613 0.07268074 0.24095935
000080 b2 15 29 be 50 a4 9b 3c 54 47 92 3d 1c 48 b8 bd
       -0.16512182 0.018999249 0.07142511 -0.08998129
000090 80 81 28 3e 86 a8 63 3e da 33 79 3e a0 21 65 be
       0.1645565 0.22232255 0.24336186 -0.22376108
0000a0 60 06 64 3c e2 f6 50 3e d4 12 5a 3e 90 e3 83 bd
       0.013917536 0.20406678 0.21296245 -0.064398885
0000b0 28 97 29 3e b2 13 3f 3e 30 8b 81 bc 10 94 2f 3e
       0.16561568 0.18659857 -0.01581344 0.17146325

gru.bias_hh f4 [48]
000000 f4 2d 13 3e 90 52 18 bd d4 e2 d5 bd ae c5 07 be
       0.14372998 -0.037188113 -0.10443655 -0.13259003
000010 9c 44 4e be 92 02 19 be c8 aa 85 3d 14 b3 b6 3d
       -0.2014336 -0.14942387 0.065267146 0.08920875
000020 04 ce 92 bd d0 5e a9 bc ae 2f 31 3e d0 ac 17 3d
       -0.071682006 -0.020675093 0.17303345 0.03703004
000030 b6 a0 31 be 8e e6 58 3e 80 78 1a 3e 50 eb eb 3c
       -0.17346463 0.211817 0.1508503 0.02879873
000040 c0 03 f4 3d 20 65 58 be 2e 24 16 3e f8 2b 79 3d
       0.11914778 -0.21132326 0.14662239 0.060832947
000050 20 25 b5 bc e8 40 a4 bd a4 c0 4e 3e a8 9e 5c 3d
       -0.02211243 -0.080201924 0.20190674 0.053862244
000060 84 01 0f be e0 3a e6 3d b0 1d 35 3d 14 83 b3 bd
       -0.13965422 0.11241698 0.044217765 -0.087652355
000070 c4 c4 34 3e 7a e4 7e 3e 60 dc 34 bc 90 30 d3 bd
       0.17653185 0.24891844 -0.01103887 -0.10311997
000080 d6 63 09 be 6c 9c 05 be a6 59 03 3e fa 90 20 3e
       -0.1341699 -0.13047951 0.12827167 0.15680304
000090 c8 24 1b be e4 cb 0d 3e 00 35 23 3c e0 ba 0e bc
       -0.1515075 0.1384731 0.009961367 -0.008711547
0000a0 7c d6 a2 bd 80 d0 6b be c4 93 5b be 3a b9 3b 3e
       -0.07951066 -0.23028755 -0.21443087 0.18332377
0000b0 88 bc 27 bd e0 cd 32 bc 14 62 1a be 38 fc 3a bd
       -0.04095128 -0.010913342 -0.15076476 -0.04565069

net.0.weight f4 [64, 56]
000000 d0 e3 3d 3c 7f 55 83 bf a8 0c 23 bd 3b f6 20 be
       0.011589959 -1.0260466 -0.03980699 -0.1571893
000010 bf 76 8d be b2 fa b3 be 73 91 03 bd 78 b7 8d 3e
       -0.2762966 -0.35152203 -0.032121133 0.27679038
000020 a3 53 8f 3e ae e0 ec bd d0 8f f7 bd cf 55 40 3c
       0.27993497 -0.11566292 -0.12087977 0.011739208
000030 bf 2b f6 3c b1 e9 3a bb be 44 11 be 6e 79 e3 bc
       0.030050157 -0.0028520639 -0.1418638 -0.027767863
000040 3f de ca 3d 73 2d 99 3d 92 58 3d 3d f7 a7 20 3e
       0.09905671 0.07479372 0.046227045 0.15689074
000050 c3 e1 1c bc 2a 67 75 bc 70 b3 8a bd 5e 45 f0 bd
       -0.00957531 -0.0149782095 -0.06772506 -0.11731981
000060 30 f0 aa 3d 71 47 85 bd c1 17 69 3d 83 25 d9 3d
       0.083465934 -0.06507767 0.05690742 0.10602858
000070 af 4c 38 be 13 03 93 3d fc 31 fe bd ac 0a ac 3d
       -0.17998002 0.07178321 -0.124118775 0.08400473
000080 8a 18 a6 bd a5 7c 5c 3c 86 4b 81 3c f4 22 aa 3b
       -0.08110149 0.013457452 0.015783083 0.005192155
000090 fd 15 39 be 00 cc 6a bd 93 f5 9b 3c 65 7a ff bd
       -0.18074794 -0.057323456 0.019037997 -0.12474517
0000a0 a7 b8 a9 3d 6e 84 bd bc 77 89 9a 3d a1 09 0e bd
       0.08287173 -0.023134436 0.075457506 -0.03467715
0000b0 34 83 d2 3c ae 5f 21 3e 18 05 4c 3e e4 6c 25 bc
       0.025697328 0.15759155 0.19923818 -0.010096762
0000c0 28 50 0b bd bf 93 2f be 8a 46 b1 bd ed ca fb bd
       -0.03401199 -0.17146204 -0.086560324 -0.122945644
0000d0 71 b7 62 3e c0 c2 46 3e 97 fe 47 3e 34 dc f3 3d
       0.2214029 0.19410229 0.19530712 0.11907235
0000e0 49 9b 02 3e db 6c f8 3c 48 06 b7 3d 32 05 47 bf
       0.12754549 0.030325344 0.08936745 -0.777423
0000f0 eb aa 82 3d 9c 9a cd be 0a 17 34 be b6 ef cf be
       0.06380256 -0.4015702 -0.17586914 -0.40612572
000100 eb 4c 99 3e 7a 39 14 3e 94 03 52 3e 49 8a f0 3d
       0.29941496 0.1447505 0.20509177 0.11745126
000110 b5 a1 38 bd 54 e5 c0 b9 e1 00 c7 3d 6c 2b 60 3d
       -0.04507609 -0.00036791957 0.097169645 0.05472891
000120 9a 22 48 3e 00 65 da 3c cd 6c 56 bd af 21 52 be
       0.1954445 0.026659489 -0.052349854 -0.20520662
000130 36 64 04 be c9 b7 b8 3d b6 15 25 3e ff 3e 10 be
       -0.12928852 0.09019429 0.16121563 -0.14086531
000140 c9 f3 4a be fa c1 c4 3c 36 d6 d5 3d 9f 9c f7 bd
       -0.19819559 0.024018276 0.10441248 -0.1209042
000150 27 31 80 3d af 74 32 3e 18 ea 08 3e 35 0b bc 3d
       0.06259375 0.17427324 0.1337055 0.09181825
000160 74 29 62 bd ec 07 bd 3d 24 09 6f be 85 33 07 3c
       -0.055215314 0.092300266 -0.2334333 0.008252029
000170 cb d0 a5 3d e8 c9 9e bd 0e a2 38 be a2 18 a5 be
       0.08096465 -0.07753354 -0.18030569 -0.32245356
000180 14 5b 1b be 43 39 1a be f3 74 1a be 36 54 b9 bd
       -0.15171462 -0.15060906 -0.15083675 -0.09049265
000190 ba f7 26 3e 1a 09 06 be b5 6e bf 3d b3 8f bd 3c
       0.16305438 -0.1308941 0.093472876 0.02313981
0001a0 f7 ef 86 bd d8 b5 a7 bc 8e 5f b4 bd 5c cb 48 3e
       -0.065887384 -0.020472452 -0.08807288 0.19608825
0001b0 01 7e f5 bd 99 dc e9 bd ac e9 00 bd 0d 39 84 bc
       -0.11986924 -0.11419029 -0.031472847 -0.016140485
0001c0 37 5a 69 be d5 d2 b5 be cd 00 1e be 39 eb 52 3c
       -0.2278832 -0.35512415 -0.15429993 0.012873464
0001d0 16 de 2b 3e a0 8d 6c be 66 07 50 be 42 c7 8b bd
       0.16783938 -0.231009 -0.20315322 -0.06825115
0001e0 e8 d0 b5 3e e9 00 be bc 2c 79 47 be 68 3e 31 be
       0.35510945 -0.023193793 -0.19479817 -0.17308962
0001f0 85 03 21 bd 71 a4 40 bd 3c db 38 be ea 71 05 3e
       -0.039309997 -0.047031824 -0.18052381 0.13031736
000200 a3 15 01 3e 24 16 be bd ea 8e a8 bd cc 8a 8b 3d
       0.1260591 -0.09281567 -0.08230384 0.06813583
000210 bc 6d dc 3d 91 c2 e9 bd 47 46 18 3e 56 cc 19 be
       0.10763118 -0.11414064 0.14870559 -0.15019354
000220 a9 c1 62 3d 08 e8 01 be 1c 3d a4 3d 34 fc 26 3e
       0.05536047 -0.12686169 0.08019468 0.16307145
000230 ca 28 1a bd 59 f8 d9 3d 8b 5f 02 3d 48 e1 25 3e
       -0.037636556 0.10643072 0.031829398 0.16199219
000240 66 af e4 3d 73 cf 97 3d a8 68 f0 bd 3b e7 d1 bd
       0.11166267 0.07412615 -0.117387116 -0.10249182
000250 63 08 af bb be e2 03 be e2 0f 9d bd 56 99 0a be
       -0.005341576 -0.12879464 -0.07669045 -0.13535056
000260 8e 3e 0a 3d 01 5e f4 3d 7f 22 64 3d 31 6d d5 bd
       0.033751063 0.11931992 0.05569696 -0.10421217
000270 41 db d4 bc f2 b5 eb 3a 8c 14 0d bc 52 a2 a2 bd
       -0.025983455 0.0017983301 -0.008610856 -0.079411164
000280 14 8b 60 3d f5 36 ff bb 22 9f 0d 3e 99 87 92 3d
       0.054820135 -0.007788534 0.13830236 0.071547695
000290 da 3c 61 3d da b8 b6 bd 21 fb a4 bd bb f8 46 3e
       0.054989673 -0.089219764 -0.080557115 0.1943082
0002a0 e6 41 4e 3e 84 3c a4 be 90 11 99 3e 0a 09 ab 3e
       0.20142326 -0.3207742 0.29896212 0.33405334
0002b0 e0 07 9c be dc 87 72 3e ac 98 07 3e 7d 09 1a 3e
       -0.30474758 0.23684639 0.13241833 0.15042682
0002c0 85 dd 88 be b3 aa 5e 3e ac 6f f1 be e9 89 54 3e
       -0.26731506 0.21744804 -0.4715551 0.20755734
0002d0 bc 90 42 be 3c 3b e2 bd 32 73 90 ba 50 2e 0b be
       -0.19000524 -0.11046454 -0.0011020659 -0.13591886
0002e0 52 c1 7c 3d 69 14 cd be f5 f2 ea bd b7 2e 7f bd
       0.061707802 -0.40054634 -0.114721216 -0.06230041
0002f0 a3 f9 42 bd 37 58 31 3c 7e 49 2d be e0 ec e1 3d
       -0.047601353 0.010824255 -0.16922566 0.110315084
000300 4a 7c 28 3b 55 4c 4f 3e e8 88 de bd 30 4a 3f be
       0.0025708848 0.20243962 -0.108659565 -0.18680644
000310 1f eb a3 be a7 35 32 bd 97 a2 01 bd bb 88 73 be
       -0.3201532 -0.043508198 -0.0316492 -0.23782627
000320 2d 1e 2f be 57 94 2e 3e 7a 04 f7 3d 49 69 3e 3d
       -0.17101355 0.17048775 0.12061401 0.046487126
000330 36 69 06 3e 78 57 2e bd f6 9e 87 3d 08 51 8c 3d
       0.13126072 -0.042563885 0.06622116 0.06851393
000340 47 0f 3b 3e f5 ac 02 3d 1c 75 3f be 22 df 2a 3d
       0.18267547 0.031903226 -0.18697017 0.041716702
000350 ee 99 23 be ba 3a 23 3c 21 26 1f bc 61 7c 16 3e
       -0.15976688 0.009962732 -0.0097136805 0.14695884
000360 48 97 63 3d 86 e0 76 3e 71 57 3e 3c 82 e9 cd 3d
       0.055564195 0.24109086 0.011617527 0.10054304
000370 ed d8 2c 3d e5 9d 7b 3d 8c de 47 bd 93 b7 14 be
       0.042199064 0.061429877 -0.04879622 -0.14523153
000380 32 9c 85 bc 3b 44 68 3f f7 61 6d be 22 82 c5 3e
       -0.016309831 0.9072911 -0.23181902 0.38575846
000390 7d 22 a3 3e a5 ba 60 3e 8e 32 9c 3e 5d 3d 63 3e
       0.3186225 0.21946199 0.3050732 0.22191377
0003a0 7f 17 0d bf 38 71 a7 3d e3 c1 b5 3e 9e 67 1b 3e
       -0.5511398 0.08175892 0.35499486 0.15176246
0003b0 44 a8 26 3e 92 7f 5f bd 4d 7c a9 bd d8 01 5e 3e
       0.16275126 -0.05456502 -0.082756616 0.21680391
0003c0 cc 17 a0 3c cd ba 5b bc a5 b3 04 3d 17 7c 8d 3b
       0.019542597 -0.013411236 0.032397885 0.004317771
0003d0 45 c3 a5 3d bb a2 a2 bc 0e 60 23 be 34 07 96 3e
       0.08093885 -0.019852987 -0.1595461 0.2930237
0003e0 5f e9 23 3e e2 86 63 3d 04 16 4c bc 7f d5 63 3e
       0.16006993 0.055548556 -0.012456421 0.22249411
0003f0 20 82 00 bd 36 74 ae 3c a2 29 96 bc 13 c8 8b bd
       -0.031374097 0.021295648 -0.018330399 -0.068252705
